PPO/PPO_LunarLander-v2.pth (torch, 43938 bytes, 11 tensors)

actor_layer.0.weight f4 [64, 8]
0	0xbe83d58e	-0.25748867
1	0xbea4e995	-0.3220946
2	0xbe46b17d	-0.19403644
3	0xbeeed9e8	-0.46650624
4	0x3edabde8	0.42723012
5	0xbe28d541	-0.164876
6	0x3e9d23de	0.30691427
7	0x3dc26deb	0.094936214
8	0xbe770b40	-0.24125385
9	0xbe804a16	-0.25056523
10	0x3ea71373	0.32632026
11	0xbeecacf7	-0.46225712
12	0x3e946a53	0.2898737
13	0x3dd9553f	0.106119625
14	0x3e3480c5	0.17627247
15	0x3ea50c81	0.32236102
16	0xbeb9691f	-0.36213014
17	0x3c9fb9fe	0.019497868
18	0xbe73b20e	-0.23798391
19	0x3c1c4815	0.00953867
20	0x3ec92c7c	0.3929175
21	0x3f0e23c2	0.5552331
22	0x3e48e9ce	0.1962044
23	0xbe4d1fe5	-0.20031698
24	0xbe0762aa	-0.13221231
25	0xbc32e679	-0.010919207
26	0x3c80d2b4	0.015725471
27	0x3ea7802d	0.32714978
28	0xbefd70fa	-0.49500257
29	0xbf1cc092	-0.6123134
30	0x3d2dbe73	0.042417955
31	0x3e8bf593	0.27335796
32	0x3deda0d6	0.11602943
33	0xbe990b91	-0.29891637
34	0x3db32ab0	0.08748376
35	0xbe9794e5	-0.29605785
36	0x3ed4f291	0.41591313
37	0xbccc1222	-0.02491099
38	0xbe0df004	-0.1386109
39	0x3e080f8a	0.13287178
40	0xbe92f5ca	-0.28703147
41	0x3eaac75a	0.33355218
42	0x3d49d240	0.049272776
43	0x3f165828	0.58728266
44	0xbe3d8871	-0.1850908
45	0x3ed43840	0.41449165
46	0x3e687eed	0.22704668
47	0xbe5fe9d4	-0.21866542
48	0x3e53e04b	0.2069103
49	0xbddd6939	-0.10811085
50	0xbdf78a4d	-0.12086926
51	0x3e7de6ca	0.2479507
52	0x3d2861be	0.04110884
53	0x3cad4e25	0.021155426
54	0xbe128e03	-0.14311986
55	0xbe9cfa64	-0.30659783
56	0xbe8983af	-0.2685828
57	0x3e84aa27	0.25911066
58	0xbea03f40	-0.31298256
59	0x3eb56669	0.35429695
60	0x3eaf566e	0.34245628
61	0x3d31c424	0.043399945
62	0x3d6a1f03	0.05715848
63	0x3da0c166	0.07849388
64	0x3e378cc1	0.17924787
65	0x3d0a7d0e	0.033810668
66	0x3e4e13dd	0.20124765
67	0xbeb34a2d	-0.3501753
68	0xbeac5f5d	-0.33666506
69	0xbf16dc96	-0.5893034
70	0x3ea919bd	0.3302745
71	0x3e010d05	0.12602623
72	0x3d95273b	0.07282873
73	0x3dc0ce5a	0.094143584
74	0x3ea79eea	0.3273843
75	0x3d968f79	0.07351584
76	0xbf158de0	-0.5841961
77	0xbddcb5c5	-0.10776857
78	0x3e33f997	0.1757568
79	0x3e6714fc	0.22566599
80	0xbde6f871	-0.11277855
81	0x3d3f12de	0.046648853
82	0xbd4ba3ee	-0.049716882
83	0xbd9e94dd	-0.07743237
84	0x3eb08986	0.34479922
85	0x3e805392	0.2506376
86	0x3e546f9c	0.207457
87	0xbe71135e	-0.23542544
88	0x3e9d9b0d	0.30782357
89	0xbd1679c0	-0.036737204
90	0x3e1710db	0.14752524
91	0xbf0aafd9	-0.5417457
92	0xbe82e547	-0.2556555
93	0xbe8d9e53	-0.27659854
94	0x3e7cd1e3	0.2468944
95	0xbe816d97	-0.25278923
96	0xbd5625bf	-0.05228209
97	0xbe5bbd61	-0.21458961
98	0x3cfbafb5	0.030723432
99	0xbee4a93e	-0.44660372
100	0xbec93b28	-0.39302945
101	0x3d5660ef	0.052338537
102	0xbe7f6bd1	-0.24943472
103	0xbe463bf9	-0.19358815
104	0xbe0fe85c	-0.14053482
105	0xbddf2946	-0.10896544
106	0xbeeb3999	-0.4594238
107	0x3d1b1c43	0.03786875
108	0x3f16b961	0.58876616
109	0x3e809b96	0.25118703
110	0xbe8799b2	-0.26484448
111	0x3e16b662	0.14718011
112	0xbed3a5ae	-0.4133734
113	0x3e23a993	0.15982656
114	0xbe33e1fa	-0.17566672
115	0xbe5d94d4	-0.21638805
116	0x3f1e58d2	0.6185428
117	0x3e1b8a0f	0.15189384
118	0x3dfe1d89	0.12407977
119	0x3e42edcd	0.19036026
120	0x3d20aea1	0.03922904
121	0x3e0d449f	0.13795708
122	0x3e6ea21e	0.2330403
123	0xb9b6a461	-0.00034836217
124	0xbe662e29	-0.22478546
125	0xbeaed636	-0.34147805
126	0xbe413a9f	-0.18870018
127	0xbdf140a8	-0.1177991
128	0x3e513ca3	0.20433287
129	0xbeb973e3	-0.36221227
130	0xbe9dbf53	-0.3081003
131	0xbe4cb952	-0.19992569
132	0x3e98cd65	0.29844204
133	0x3de63c37	0.11241954
134	0x3dadb2fe	0.08481406
135	0xbda13c9b	-0.07872888
136	0x3d068471	0.03284115
137	0x3e58e696	0.21181712
138	0x3e651fb6	0.22375378
139	0xbe43e3d7	-0.19129883
140	0xbf25f94b	-0.64833516
141	0xbece7a96	-0.403279
142	0x3e2641b3	0.16236
143	0x3ec45bff	0.38351437
144	0xbe332162	-0.17493203
145	0x3d18152e	0.037129574
146	0xbddb89d0	-0.10719645
147	0x3d8e1ce5	0.06939105
148	0x3e0ca1a7	0.1373354
149	0x3d682377	0.056674447
150	0xbe482c51	-0.19548155
151	0x3e7623d0	0.24037099
152	0xbd3bcc26	-0.045848988
153	0x3ea8a4a5	0.32938114
154	0x3c66e821	0.01409343
155	0x3ee20c17	0.4414985
156	0x3e2f4915	0.17117722
157	0x3f05c88b	0.5225913
158	0x3e4a5dc2	0.19762328
159	0xbe67b054	-0.22625858
160	0xbea8aba0	-0.3294344
161	0xbe213a29	-0.15744843
162	0xbe77f445	-0.24214275
163	0x3eb5fe43	0.3554555
164	0x3ebe51ed	0.3717188
165	0xbc1ac642	-0.009446682
166	0xbe51d41b	-0.20491068
167	0xbc9ea8b9	-0.019367563
168	0x3d9cafa3	0.076506875
169	0x3e290425	0.16505487
170	0xbe8bbb54	-0.27291358
171	0xbe3453ed	-0.1761014
172	0x3eb7905e	0.3585233
173	0x3e33d910	0.17563272
174	0x3bee9f66	0.0072821854
175	0x3ddefb95	0.10887829
176	0x3d7d1e91	0.06179673
177	0x3d2505e7	0.040288832
178	0x3d6c059f	0.05762255
179	0xbe373ba9	-0.17893852
180	0xbee3d3bd	-0.4449748
181	0xbec59148	-0.38587403
182	0x3c4337cc	0.0119151585
183	0x3e609ba5	0.21934374
184	0x3e645e88	0.22301686
185	0xbde14a63	-0.11000516
186	0xbbc7e226	-0.006099957
187	0xbe9fa5e6	-0.31181258
188	0x3e3ab012	0.18231228
189	0x3bd6f994	0.0065605137
190	0xbe2fb15f	-0.17157505
191	0xbe09bf01	-0.13451768
192	0xbdf900b5	-0.12158338
193	0xbe674fcc	-0.22589034
194	0x3e966abe	0.29378313
195	0xbee49355	-0.44643655
196	0xbe2ff3cd	-0.17182846
197	0xbdb17ea6	-0.086667344
198	0x3e0a1c63	0.13487391
199	0xbe2abfa9	-0.16674675
200	0x3e00eee7	0.12591134
201	0x3efd12fb	0.49428543
202	0x3e59b265	0.21259458
203	0x3ed91fdc	0.4240712
204	0x3e2b928c	0.16755122
205	0x3e37a4c3	0.17933945
206	0xbea4b051	-0.3216577
207	0x3eaa55c5	0.33268562
208	0xbea7602e	-0.32690567
209	0x3e291062	0.16510156
210	0xbe288b53	-0.16459398
211	0xbe131eed	-0.14367266
212	0x3e80c0e8	0.25147176
213	0xbdb4a7e5	-0.08821086
214	0xbd894810	-0.06703198
215	0x3eb14d6a	0.34629375
216	0xbe30a58a	-0.17250648
217	0x3e2a09fd	0.16605373
218	0xbe2d4565	-0.16921003
219	0xbcdb3b53	-0.026761686
220	0x3f1a80ac	0.6035259
221	0x3ed1229b	0.40846714
222	0x3e6aee86	0.22942552
223	0xbd8fa5d1	-0.07014049
224	0x3eb591ee	0.35462898
225	0x3cb0c60d	0.021578813
226	0x3e2c379f	0.16818093
227	0x3eb21dcd	0.3478836
228	0xbf0b0501	-0.5430451
229	0xbe859163	-0.26087484
230	0xbe6e8a13	-0.23294859
231	0xbd826dce	-0.063686
232	0xbdc49800	-0.09599304
233	0xbec39d61	-0.38206008
234	0xbd135ac6	-0.03597524
235	0xbebe48f7	-0.37165043
236	0xbeea2614	-0.45732176
237	0xbeb073ec	-0.3446344
238	0xbd676ab3	-0.05649824
239	0xbea7127d	-0.32631293
240	0xbdfd2c1f	-0.12361931
241	0xbeb41182	-0.35169607
242	0x3e746c0e	0.23869345
243	0xbea961fa	-0.33082563
244	0xbee2baa5	-0.44283023
245	0x3e0828cd	0.13296814
246	0x3da748c6	0.08168177
247	0xbe1841b0	-0.14868808
248	0x3e13e741	0.14443685
249	0xbe519fab	-0.20471065
250	0x3e6734ca	0.22578731
251	0xbe80076c	-0.25005662
252	0xbd2c9677	-0.042135682
253	0x3de76b44	0.11299756
254	0xbe7c0ceb	-0.24614303
255	0x3bc100d1	0.00588999

actor_layer.0.bias f4 [64]
0	0xbb557029	-0.0032568073
1	0x3e6b6705	0.22988518
2	0xbe62dc6c	-0.22154397
3	0x3e7ab3d3	0.2448266
4	0x3e266fdf	0.16253613
5	0x3e53e93e	0.20694444
6	0x3d5a3448	0.053272516
7	0x3d61efc5	0.055160303
8	0xbe81b499	-0.25333098
9	0x3e4ab4b6	0.19795498
10	0x3e5e4029	0.21704163
11	0xbd1070b5	-0.035263736
12	0x3c4c5bef	0.012473091
13	0xbd379d20	-0.04482758
14	0x3de6407e	0.1124277
15	0x3e167539	0.14693154
16	0xbda1af09	-0.078947134
17	0xbe3c51c9	-0.18390574
18	0xbd51c6f0	-0.051215112
19	0x3e547d6d	0.20750971
20	0x3d90d70b	0.07072266
21	0xbe8374b3	-0.25674972
22	0x3e4da96c	0.2008416
23	0x3dcb649a	0.099312976
24	0x3e7d1dd1	0.24718405
25	0x3e3072dd	0.17231317
26	0x3d4ebeb0	0.050474823
27	0xbdb3c29b	-0.087773524
28	0xbe419d6e	-0.18907711
29	0x3dc862e7	0.09784489
30	0xbcee5808	-0.029094711
31	0xbdc9804d	-0.098389246
32	0x3abce1a4	0.0014410508
33	0x3ae394e9	0.0017363104
34	0xbc3b1400	-0.011418343
35	0x3e71d51a	0.23616448
36	0x3dca562d	0.09879718
37	0x3d00ebfb	0.03147505
38	0xbe407188	-0.18793309
39	0x3e46afee	0.1940305
40	0x3e86a89f	0.26300523
41	0xbe935a6a	-0.28779918
42	0x3dafe8ad	0.08589301
43	0x3e3398d6	0.17538771
44	0x3d18b4c9	0.037281785
45	0xbe9c3f2c	-0.30516946
46	0xbddb3ee6	-0.10705356
47	0x3c5c2d4c	0.013438534
48	0xbdef7efe	-0.11694144
49	0xbdf7fd76	-0.12108891
50	0x3dba95ae	0.091105804
51	0x3d4272dc	0.04747282
52	0x3daa1648	0.08305031
53	0xbe7aa8cd	-0.24478455
54	0x3e84692e	0.25861496
55	0x3e7667f7	0.24063097
56	0x3cbc20bf	0.022964833
57	0xbbc617d4	-0.006045321
58	0x3b8ce237	0.004299428
59	0x3e674725	0.22585733
60	0x3e27627e	0.16346166
61	0xbd30041f	-0.04297268
62	0xbe83a96f	-0.25715205
63	0x3db21df7	0.086971216

actor_layer.2.weight f4 [64, 64]
0	0x3e336e4e	0.17522547
1	0x3e13eef0	0.14446616
2	0xbc710184	-0.014709834
3	0xbdbb1f82	-0.09136869
4	0x3c17a093	0.0092545925
5	0xbdb126ee	-0.086500034
6	0xbd619d4a	-0.055081643
7	0x3db0db76	0.08635609
8	0x3d0882b9	0.03332779
9	0xbd481aea	-0.048853792
10	0x3c95096d	0.018192971
11	0xbc64f11d	-0.0139735015
12	0x3d2c1857	0.0420154
13	0x3da0e706	0.07856564
14	0x3c5fe5e9	0.013665655
15	0xbd4e46e6	-0.050360583
16	0x3e0b8c83	0.1362782
17	0xbd4db01f	-0.05021679
18	0xbd6d35ae	-0.05791252
19	0xbe0a119d	-0.13483281
20	0x3c916ae7	0.01775117
21	0x3d4dbfd3	0.050231766
22	0xbd38341f	-0.04497158
23	0xbd951722	-0.07279803
24	0x3e18b6b1	0.14913441
25	0xbd28f246	-0.041246675
26	0xbd5a3c0e	-0.05327993
27	0x3d578b82	0.05262328
28	0xbd4a01c6	-0.049318098
29	0x3e46e7cc	0.19424361
30	0xbd4fdebc	-0.050749525
31	0x3d620ed5	0.055189926
32	0xbe7e196e	-0.24814388
33	0x3dbf6a7f	0.093464844
34	0x3e34706a	0.17621008
35	0xbe32f58e	-0.17476484
36	0xbd8ce168	-0.0687893
37	0x3de3154f	0.11088049
38	0xbcbcbda0	-0.023039639
39	0xbe2df2f0	-0.16987205
40	0x3dcc3409	0.099708624
41	0x3d577b86	0.052608036
42	0xbc2c7876	-0.010526767
43	0xbd0fd44c	-0.03511457
44	0x3e2bfff4	0.16796857
45	0xbe5d2a24	-0.21598107
46	0x3dc0b603	0.09409716
47	0xbe074a98	-0.13212049
48	0xbc858a86	-0.016301405
49	0xbcc1d8b4	-0.023662902
50	0xbdc82dc4	-0.09774354
51	0xbd158043	-0.036499273
52	0x3d8988db	0.06715556
53	0x3b61d0ca	0.0034456723
54	0x3e5ddd71	0.21666504
55	0xbd9c4132	-0.076296225
56	0xbce7cc20	-0.028295577
57	0xbe188a0e	-0.14896414
58	0xbeb575f5	-0.35441557
59	0x3d43b344	0.047778383
60	0x3d1dd450	0.038532555
61	0xbc308c3c	-0.010775622
62	0x3e51bff4	0.2048338
63	0x3b702b5d	0.003664694
64	0x3da8cfb2	0.0824274
65	0x3d9f8260	0.07788539
66	0x3d8a2c46	0.06746726
67	0xbd5623cb	-0.05228023
68	0x3e451a31	0.19248272
69	0xbe803645	-0.25041404
70	0xbd900cb8	-0.07033676
71	0xbeb97135	-0.36219183
72	0x3dea3fc0	0.114379406
73	0xbbf9afa2	-0.007619814
74	0xbcf077e8	-0.02935405
75	0x3e69d3e1	0.22834732
76	0x3e5bcfb6	0.21465954
77	0xbdb32715	-0.08747689
78	0x3d468c43	0.048473608
79	0xbd9c5868	-0.0763405
80	0x3db581af	0.08862626
81	0x3d10e2ee	0.035372667
82	0xbba17649	-0.004927431
83	0xbe1e60e4	-0.15466648
84	0xbe0deef0	-0.13860679
85	0xbd27d746	-0.040976785
86	0x3dcd9216	0.10037629
87	0x3dec6143	0.11541989
88	0x3e70925b	0.2349333
89	0xbe247145	-0.16058834
90	0xbb7bec4d	-0.0038440407
91	0xbe3da141	-0.18518545
92	0xbd837f5a	-0.06420775
93	0x3eae700d	0.34069863
94	0x3e809471	0.25113252
95	0x3e1c5f9b	0.15270846
96	0xbd5f327e	-0.054491512
97	0x3e54995e	0.2076163
98	0x3e6a8d69	0.22905506
99	0xbd8c072e	-0.06837307
100	0xbe24939f	-0.16071938
101	0x3ea0034a	0.3125251
102	0xbeb382d6	-0.35060757
103	0x3d5062fd	0.050875653
104	0x3cdd87e0	0.02704233
105	0x3e7e62b4	0.2484234
106	0x3ce2952d	0.027659023
107	0xbe12204c	-0.14270133
108	0x3e23147c	0.15925783
109	0x3ddc182b	0.10746797
110	0x3d9e16c3	0.07719185
111	0x3dc448f4	0.09584227
112	0xbe83b4db	-0.2572392
113	0x3e81ac79	0.253269
114	0xbdac84f0	-0.08423793
115	0xbde7e1e0	-0.11322379
116	0xbe1f896c	-0.15579766
117	0x3e6822d3	0.22669534
118	0x3e2a709e	0.16644523
119	0x3da26053	0.07928529
120	0xbbe3c664	-0.0069511402
121	0xbc384f10	-0.011249319
122	0xbe7a7586	-0.24458894
123	0x3ddda972	0.10823335
124	0x3e5397de	0.20663401
125	0x3d273b44	0.040828004
126	0x3e5d48f5	0.21609862
127	0x3de82448	0.11335045
128	0xbdd4547f	-0.10367679
129	0x3da0a5e4	0.07844141
130	0x3d9246c4	0.07142404
131	0xbd2177c9	-0.039420877
132	0x3d8c4028	0.06848174
133	0xb9860cf4	-0.00025568123
134	0xbdf9cbce	-0.12197076
135	0x3ded2ff2	0.115814105
136	0xbe28591d	-0.16440244
137	0xbd4b5148	-0.049638063
138	0x3e1a4f16	0.15069231
139	0xbe302666	-0.17202148
140	0xbdefbf1d	-0.11706374
141	0x3d48f03c	0.04905723
142	0xbd02447d	-0.031803597
143	0xbdc86b08	-0.097860396
144	0x3d9e5267	0.07730561
145	0xbdb88c56	-0.09011142
146	0x3dc9d32f	0.09854733
147	0x3d166d74	0.036725476
148	0xbba543f0	-0.005043499
149	0x3dd03628	0.101665795
150	0xbdf1ddf9	-0.11809916
151	0x3e03bba1	0.12864543
152	0xbd60c090	-0.054871142
153	0x3d714d13	0.058911394
154	0x3de1feff	0.11034965
155	0x3def8256	0.116947815
156	0xbe2a8f53	-0.16656236
157	0xbe4db694	-0.2008918
158	0xbe4aeb9e	-0.19816443
159	0xbd81c06e	-0.06335531
160	0xbdd07a85	-0.10179619
161	0xbe0e6006	-0.13903818
162	0x3c360e22	0.011111768
163	0xbdb25e0e	-0.08709346
164	0xbd6a5bec	-0.05721657
165	0x3c5c86fe	0.013459919
166	0x3e944cc7	0.28964826
167	0xbc9667b1	-0.01835999
168	0xbd2dc4b5	-0.042423923
169	0xbdd026a1	-0.10163618
170	0xbe1bde2c	-0.1522147
171	0x3e15ee92	0.14641789
172	0xbc6eb659	-0.014569842
173	0xbe75a267	-0.23987733
174	0x3d59955f	0.053120967
175	0xbe2f1555	-0.17097981
176	0x3dfa1c14	0.12212387
177	0xbe82baac	-0.25533044
178	0x3db30ce8	0.08742696
179	0x3e4212b9	0.18952455
180	0x3e0206ec	0.12697953
181	0xbe3f2d25	-0.18669565
182	0xbe2d18b5	-0.16903956
183	0xbe4661c3	-0.1937323
184	0xbca12d0d	-0.019674802
185	0xbd84afd3	-0.06478848
186	0xbe4644a9	-0.1936213
187	0xbdff8086	-0.12475686
188	0xbc9f625c	-0.019456081
189	0x3bbd9471	0.005785518
190	0xbd862ccb	-0.06551512
191	0xbd48565c	-0.048910484
192	0x3de5250a	0.11188705
193	0x3da1eeb2	0.07906856
194	0x3d001cdb	0.03127752
195	0xbe19f3c7	-0.150344
196	0xbcf2b259	-0.029626058
197	0x3e335ed7	0.17516647
198	0x3d89facd	0.067372896
199	0x3e38d411	0.18049647
200	0xbe91435d	-0.28371707
201	0xbdae50ab	-0.0851148
202	0x3d0a7751	0.033805195
203	0xbe09f509	-0.1347238
204	0xbdb228fe	-0.08699225
205	0x3e328ff7	0.1743773
206	0x3e22c540	0.15895557
207	0xbd41f7b4	-0.04735537
208	0x3d051bd7	0.032497253
209	0xbe0d3ddb	-0.13793127
210	0x3d3b53d0	0.045734227
211	0x3d13c41c	0.036075696
212	0x3daccf89	0.08438022
213	0x3d082fa4	0.03324856
214	0x3d26b8f6	0.040703736
215	0x3cf355c7	0.029703988
216	0xbdc59517	-0.09647577
217	0xbb9e01e5	-0.004822003
218	0x3df140c7	0.117799334
219	0x3eb47c84	0.35251248
220	0xbda87975	-0.08226291
221	0xbe41f6b7	-0.1894177
222	0xbe1b56c3	-0.15169816
223	0x3c35a30c	0.011086237
224	0xbdc8276a	-0.09773143
225	0x3c80166a	0.015635688
226	0x3e8db571	0.2767749
227	0xbe417977	-0.18893991
228	0x3d626b99	0.055278394
229	0x3be83abf	0.007087081
230	0x3e675be1	0.22593643
231	0x3dd09f15	0.101865925
232	0x3e031f3a	0.1280488
233	0x3dd2d093	0.102936886
234	0xbda32752	-0.07966484
235	0x3e36e9aa	0.17862573
236	0xbd529a62	-0.051416762
237	0xbe7bfa98	-0.24607313
238	0x3dcdb275	0.100438036
239	0xbe40ffba	-0.18847552
240	0x3d93119d	0.07181094
241	0xbe48f9de	-0.19626567
242	0xbd9ba176	-0.075991556
243	0x3d8ef651	0.06980575
244	0x3de60706	0.11231808
245	0xbcbe6e68	-0.023246005
246	0xbd468d57	-0.048474636
247	0xbdb56871	-0.08857811
248	0xbe421a8f	-0.18955444
249	0xbdedeb45	-0.1161714
250	0xbdf7d106	-0.12100415
251	0x3d99308a	0.07479961
252	0xbd9152aa	-0.07095845
253	0xbc8af5f1	-0.016962977
254	0xbc4312fd	-0.011906383
255	0xbe3a42c6	-0.18189535

actor_layer.2.bias f4 [64]
0	0x3aab3eb3	0.001306495
1	0x3d91c868	0.071183026
2	0xbc7fdc69	-0.015616515
3	0x3d198f5a	0.037490226
4	0xbd3eb68a	-0.0465608
5	0xbc8e00a0	-0.017334282
6	0x3d1da76c	0.038489744
7	0xbd6e07e1	-0.058112983
8	0xbd7e1f8a	-0.062041797
9	0xbb05fdb8	-0.0020445418
10	0x3d0e0712	0.03467471
11	0x3d9d65a2	0.076854005
12	0x3e070cf9	0.13188542
13	0x3ddb0ace	0.1069542
14	0x3dbb4197	0.0914337
15	0xbde97f4e	-0.114012346
16	0xbc3d9dd3	-0.011573273
17	0x3deb8696	0.115002796
18	0xbd990aca	-0.07472761
19	0xbc6d8675	-0.014497389
20	0x3d7769d1	0.06040365
21	0xbdbe6180	-0.092959404
22	0xbdb62932	-0.08894576
23	0xbc62b3de	-0.013836829
24	0x3db7f131	0.089815505
25	0x3dd39640	0.10331392
26	0x3d0d0de0	0.03443706
27	0xbdbdcda7	-0.09267741
28	0xbbda347e	-0.0066590896
29	0x3c5ccf5f	0.0134771755
30	0x3ce3399f	0.027737437
31	0x3dca433e	0.09876107
32	0xbdc5199c	-0.09624025
33	0xbd8d3135	-0.06894151
34	0x3db1c531	0.086801894
35	0xbd4e3d61	-0.050351504
36	0xbce4db85	-0.027936706
37	0xbd2525dc	-0.04031931
38	0xbcf6d1ff	-0.03012943
39	0x3cea1c58	0.028577968
40	0xbd9272cf	-0.07150804
41	0xbc28969b	-0.010289813
42	0x3d847535	0.06467668
43	0x3d86c67b	0.06580826
44	0xbc99c1eb	-0.018769225
45	0x3dac871e	0.08424209
46	0xbd7778f4	-0.060418084
47	0x3ccb117c	0.02478861
48	0xbdc82ed9	-0.097745605
49	0xbdb7985d	-0.08964608
50	0xbe0490e7	-0.12945901
51	0xbd8c8981	-0.06862164
52	0xbcd573c6	-0.026056182
53	0xbd805078	-0.06265348
54	0x3d398088	0.045288593
55	0xbd611315	-0.05494984
56	0xbd9eff02	-0.07763483
57	0xbc9e94d1	-0.01935807
58	0xbd77c7a6	-0.060493134
59	0x3d1c7377	0.038196053
60	0x3d4877d7	0.048942413
61	0xbd0aeafd	-0.03391551
62	0x3d3563b5	0.04428454
63	0xbdc746a3	-0.0973027

actor_layer.4.weight f4 [4, 64]
0	0xbd4898af	-0.048973735
1	0xbe1892b5	-0.14899714
2	0x3e0f4de9	0.13994564
3	0x3c338b02	0.010958435
4	0xbd541684	-0.051779285
5	0x3e154301	0.14576341
6	0x3d0926ea	0.033484377
7	0xbe15d4cd	-0.14631958
8	0x3da7596e	0.08171354
9	0xbc3de234	-0.011589576
10	0xbe0ea25b	-0.13929121
11	0xbba17464	-0.004927205
12	0x3e44651f	0.191792
13	0xbdd06c1a	-0.10176869
14	0xbe233f51	-0.15942122
15	0xbe155fe8	-0.14587367
16	0xbe0f2360	-0.13978338
17	0xbc4120ee	-0.011787636
18	0xbdeeb844	-0.1165624
19	0xbdd4a774	-0.10383502
20	0x3e97fd34	0.29685366
21	0xbd96fbff	-0.07372283
22	0x3d6af2ae	0.057360344
23	0x3e40ce17	0.18828617
24	0xbe1539ae	-0.14572784
25	0xbdf6ba28	-0.12047225
26	0x3d9856f6	0.074384615
27	0xbdf6bd2a	-0.12047799
28	0x3d877aa1	0.066151865
29	0x3e110660	0.14162588
30	0xbdf95237	-0.12173884
31	0x3e27eba2	0.1639848
32	0xbdc2de3c	-0.09515044
33	0xbe439ff6	-0.19103989
34	0x3dcda8fd	0.100419976
35	0x3e22ad00	0.15886307
36	0xbd0bea02	-0.034158714
37	0xbcb1e6de	-0.021716531
38	0xbe6cf13b	-0.23138897
39	0x3c664e2d	0.0140567245
40	0x3dbcd594	0.09220424
41	0x3e0664c1	0.13124372
42	0x3d6cb324	0.05778803
43	0xbe83f0aa	-0.2576955
44	0xbda2b0ca	-0.07943876
45	0xbe07f841	-0.13278295
46	0xbdd598be	-0.10429524
47	0xbdbf19cc	-0.09331092
48	0x3d943c6b	0.07238086
49	0xbd6c31fb	-0.057664853
50	0x3d87aa26	0.0662425
51	0xbd71479a	-0.058906175
52	0x3c97c6dc	0.01852744
53	0x3e228cda	0.15874043
54	0x3e73848e	0.23781034
55	0x3e7cbda8	0.24681723
56	0xbe75b1c1	-0.23993589
57	0xbe6e8d90	-0.2329619
58	0x3e36c2ab	0.17847697
59	0x3d4a4090	0.049377978
60	0xbe28699f	-0.16446541
61	0xbb435527	-0.0029805393
62	0x3e2def42	0.16985801
63	0xbe356364	-0.17713696
64	0xbdbc2f83	-0.0918875
65	0xbc58ce9c	-0.013232853
66	0xbe1951ab	-0.1497256
67	0xbe7dcdd0	-0.24785542
68	0x3d0543f3	0.032535505
69	0x3d71424f	0.058901127
70	0x3d4e78e1	0.050408248
71	0xbe116123	-0.14197211
72	0x3e014fd5	0.1262811
73	0xbdeca066	-0.11554031
74	0x3e1ac35a	0.15113583
75	0x3d6c82f2	0.057742067
76	0xbe862f07	-0.26207754
77	0xbd26fe7a	-0.04077003
78	0xbcf63656	-0.030055206
79	0x3e080e45	0.13286693
80	0x3dff0ce5	0.12453631
81	0xbe49b62b	-0.19698398
82	0xbb42186a	-0.0029616603
83	0xbdf7caed	-0.12099252
84	0xbe1fa171	-0.15588929
85	0x3d6e84c2	0.058232076
86	0x3e47cded	0.19512148
87	0xbe47e2f3	-0.19520168
88	0xbda21eab	-0.07916006
89	0x3da689d6	0.08131759
90	0xbe716caa	-0.23576608
91	0xbe05ea92	-0.13077763
92	0xbdcb1759	-0.099165626
93	0xbc303ee0	-0.010757178
94	0x3dfe6607	0.12421804
95	0xbc455c8a	-0.012045989
96	0x3e43fa03	0.1913834
97	0x3e0866ca	0.13320461
98	0x3dd9870d	0.10621462
99	0x3ea697f2	0.325378
100	0xbb8bacc4	-0.0042625386
101	0xbdd7c765	-0.10536078
102	0x3d4e5d0d	0.05038171
103	0x3dd941f8	0.10608286
104	0x3d73d2a7	0.059527066
105	0x3d34f6ab	0.044180553
106	0x3d00859f	0.03137743
107	0xbd376a63	-0.044779193
108	0x3e68002c	0.22656316
109	0x3c5ba365	0.0134056555
110	0x3d8f31a4	0.0699189
111	0x3da22936	0.079180166
112	0x3dedcd20	0.1161139
113	0x3ea2c4a3	0.31790647
114	0x3de8516d	0.11343656
115	0xbd640fb2	-0.05567903
116	0xbddbb54f	-0.10727941
117	0xbe30a065	-0.17248686
118	0xbdef665c	-0.116894454
119	0xbdad22c8	-0.084538996
120	0x3dbebe8c	0.09313688
121	0x3dbdc3e2	0.09265877
122	0x3e893b62	0.26803118
123	0x3e87ffd1	0.2656236
124	0x3de80e31	0.11330832
125	0x3e3a0d12	0.18169048
126	0x3e16c2d9	0.14722766
127	0xbe4863df	-0.19569348
128	0x3dca68ab	0.09883245
129	0x3e996053	0.29956302
130	0xbe3f526e	-0.18683788
131	0xbde2c481	-0.110726364
132	0xbd3c6f33	-0.046004485
133	0xbe6cd879	-0.23129453
134	0xbe3e378e	-0.1857588
135	0x3d343707	0.04399779
136	0xbddf3230	-0.108982444
137	0xbd4c9e8a	-0.049955882
138	0x3cd6fdd7	0.026244087
139	0x3d05594e	0.03255587
140	0xbdc9a28a	-0.09845455
141	0x3e8028c0	0.2503109
142	0x3eb2763e	0.34855837
143	0x3e4a1add	0.1973681
144	0x3e3163bd	0.17323203
145	0x3e4b9e75	0.19884665
146	0xbc08a5ae	-0.008340282
147	0x3eb6f081	0.35730365
148	0xbe8d4f6d	-0.2759966
149	0x3dbe4b8b	0.092917524
150	0xbd57f90c	-0.052727744
151	0xbe13a11d	-0.14416929
152	0x3dda0e4a	0.10647257
153	0x3de454a8	0.111489594
154	0xbe499246	-0.19684705
155	0x3e3e13b0	0.18562198
156	0xbe4836c9	-0.19552149
157	0xbe9c2584	-0.30497372
158	0x3e274a57	0.16336952
159	0xbe48b2dc	-0.1959948
160	0x3e0e2b7d	0.13883777
161	0x3de5be17	0.112178974
162	0x3def70df	0.1169145
163	0xbca39765	-0.019969651
164	0x3d91edbb	0.071254216
165	0x3e845dba	0.25852758
166	0x3e6783b1	0.2260883
167	0x3e380915	0.17972215
168	0xbe56a711	-0.20962168
169	0xbe97c4b2	-0.29642254
170	0xbd45d02f	-0.048294242
171	0x3e20822b	0.15674655
172	0xbe1c8943	-0.15286736
173	0xbd0d28fa	-0.034462906
174	0x3e1e7bc9	0.15476908
175	0x3dbf23cd	0.09333
176	0xbe621236	-0.2207726
177	0xbe634029	-0.22192444
178	0xbe5c21e1	-0.21497299
179	0x3df4d8e8	0.11955434
180	0x3d6e7581	0.05821753
181	0xbe1c0231	-0.15235211
182	0x3c9593b5	0.018258909
183	0xbdfc5600	-0.12321091
184	0x3e406d08	0.18791592
185	0x3e0d34d5	0.13789685
186	0xbe8659ad	-0.26240292
187	0xbedbc9ba	-0.42927343
188	0x3e051e41	0.12999822
189	0xbe1184bb	-0.14210789
190	0xbde810c0	-0.1133132
191	0x3e28e34f	0.16492961
192	0x3d3adf9d	0.04562341
193	0xbd3827d7	-0.04495987
194	0x3e78e4dd	0.24306054
195	0x3e726797	0.23672329
196	0xbdb8711b	-0.09005948
197	0x3ce21e99	0.02760248
198	0xbd62c364	-0.05536212
199	0x3eaca70d	0.337212
200	0xbc66d108	-0.014087923
201	0x3d3b8fc3	0.0457914
202	0x3a1d04d4	0.0005989794
203	0xbe519aac	-0.20469159
204	0x3e82c641	0.2554188
205	0xbe34cd4a	-0.17656437
206	0x3d5ac225	0.053407807
207	0xbdc94452	-0.09827484
208	0xbe45d749	-0.19320406
209	0xbd44ebe0	-0.04807651
210	0x3d17fef9	0.037108395
211	0xbe0abc14	-0.13548309
212	0x3ded50a4	0.115876466
213	0xbe551dbe	-0.20812127
214	0xbe39a434	-0.18129045
215	0x3dfacfd5	0.12246672
216	0x3e4a028e	0.19727537
217	0x3db94e25	0.09048108
218	0x3eae81f5	0.34083524
219	0x3ea4de41	0.32200816
220	0x3e6c4f02	0.23077014
221	0x3e3edc9d	0.18638845
222	0xbec1fccb	-0.37888178
223	0xbe1ddd81	-0.15416528
224	0xbd92de8a	-0.07171352
225	0x3dab93ab	0.08377775
226	0xbe377063	-0.17913966
227	0xbe99b856	-0.3002345
228	0xbdcb7d52	-0.09936012
229	0xbe7d4f85	-0.24737366
230	0xbe04ad82	-0.12956813
231	0xbe928a97	-0.2862136
232	0x3bc0c5df	0.005882963
233	0x3d5ef7c3	0.054435503
234	0x3b82b1a3	0.003988461
235	0xbd83afb5	-0.06429998
236	0x3c2e2776	0.010629525
237	0x3e133cb7	0.1437863
238	0xbe6722d8	-0.22571886
239	0xbe80a46d	-0.25125447
240	0xbe486b5f	-0.19572209
241	0xbda2d697	-0.07951086
242	0x3e052198	0.13001096
243	0x3dd32cd4	0.10311285
244	0x3e6f915a	0.23395291
245	0x3e387637	0.18013845
246	0xbbe1b023	-0.006887452
247	0x3cc32d25	0.023825238
248	0xbe179751	-0.14803816
249	0xbe961be9	-0.2931817
250	0xbe61e309	-0.22059263
251	0xbce37511	-0.027765783
252	0x3c05156d	0.008122784
253	0xbe0e1ae0	-0.1387744
254	0xbe69b7f7	-0.22824083
255	0x3deaa86e	0.11457907

actor_layer.4.bias f4 [4]
0	0x3d705251	0.058672253
1	0xbe3d91e6	-0.18512687
2	0x3d85441a	0.0650713
3	0x3b377b02	0.0027996902

reward_layer.0.weight f4 [64, 8]
0	0x3ed1df53	0.40990695
1	0xbee7a86d	-0.45245686
2	0x3d5304a1	0.051518086
3	0xbeceec53	-0.40414676
4	0xbdde99ad	-0.10869155
5	0xbec89b77	-0.3918111
6	0xbe3a4973	-0.18192081
7	0x3e4214cc	0.18953246
8	0x3ecc0fa9	0.39855698
9	0x3e989a3c	0.2980517
10	0xbe8e6372	-0.27810246
11	0x3eac7a50	0.33687067
12	0x3ed07509	0.4071429
13	0xbd6f7799	-0.058463667
14	0xbdf0f076	-0.11764614
15	0xbdb78474	-0.0896081
16	0xbed5cbcc	-0.41757047
17	0xbcb29c5d	-0.021803075
18	0xbd67457a	-0.056462742
19	0xbeaef338	-0.34169936
20	0xbe5e966a	-0.21737066
21	0xbf56b35d	-0.83867437
22	0x3e49c279	0.19703092
23	0xbda5b0f4	-0.08090392
24	0xbe505fac	-0.20348996
25	0x3de7cc2a	0.11318238
26	0x3ddf833c	0.10913703
27	0x3eee6423	0.46560773
28	0x3e365857	0.17807136
29	0xbe8cbfdc	-0.27490127
30	0xbe9ca21f	-0.3059244
31	0x3e0417c0	0.12899685
32	0xbd471328	-0.048602253
33	0x3e71f72a	0.23629442
34	0x3e9e4892	0.30914742
35	0xbdde9837	-0.108688764
36	0xbe449d3b	-0.19200604
37	0xbebb8fd1	-0.3663316
38	0x3bb3e691	0.005490132
39	0xbe1237f3	-0.14279155
40	0xbef5961b	-0.47966084
41	0x3e87d587	0.26530096
42	0x3e9ee8ac	0.3103689
43	0x3cbecde0	0.023291528
44	0x3e3cd52e	0.18440697
45	0x3d99186e	0.07475363
46	0x3e0b6768	0.13613665
47	0xbeae5fa9	-0.34057358
48	0xbdafee1f	-0.0859034
49	0xbe869076	-0.2628209
50	0xbe9ca3eb	-0.3059381
51	0xbeffafbe	-0.49938768
52	0x3dd51da7	0.10406046
53	0x3ebcbe7b	0.36864075
54	0x3e5c2b66	0.2150093
55	0xba53b018	-0.0008075251
56	0xbe7517f5	-0.2393492
57	0xbe467026	-0.19378719
58	0x3e5ff8a7	0.21872197
59	0x3eb6a240	0.35670662
60	0x3e02db02	0.12778857
61	0xbcf2183a	-0.029552568
62	0xbd9265e6	-0.07148342
63	0xbe5d6668	-0.21621096
64	0x3da04d23	0.07827213
65	0xbee3e7a0	-0.44512653
66	0x3d3bce3a	0.04585097
67	0x3e9e4a9f	0.30916306
68	0xbea0f3da	-0.31436044
69	0xbe222820	-0.15835619
70	0x3d957945	0.07298521
71	0x3de084ba	0.109628156
72	0xbe343799	-0.17599334
73	0x3b771271	0.00377002
74	0xbe28f9f5	-0.16501601
75	0x3de9178d	0.11381445
76	0x3d63d066	0.055618666
77	0xbe70bc6a	-0.23509374
78	0xbe85fca4	-0.26169312
79	0x3e8a5d87	0.2702448
80	0x3e817ec4	0.25292027
81	0xbed8ddc4	-0.42356694
82	0xbeaea2cf	-0.34108588
83	0xbe323f90	-0.1740706
84	0x3e95c903	0.29254922
85	0x3ed91a5f	0.42402932
86	0xbeb1a30c	-0.34694707
87	0x3e7e5bc7	0.24839698
88	0xbe8eae5d	-0.27867404
89	0xbe627dba	-0.22118273
90	0xbe723846	-0.23654279
91	0xbf004060	-0.5009823
92	0x3deecd4c	0.11660251
93	0x3dce3b04	0.1006985
94	0x3d7ada17	0.061243143
95	0x3e34ffa9	0.17675652
96	0x3d78135e	0.060565345
97	0x3b9a4463	0.0047078594
98	0x3dd6bcc3	0.10485222
99	0x3d99113c	0.0747399
100	0x3e4b669e	0.19863364
101	0xbf05239a	-0.5200745
102	0x3e37e03e	0.17956635
103	0xbd8ba5fd	-0.06818769
104	0x3e0fb521	0.14033939
105	0xbcd3e55e	-0.025866207
106	0xbe64a5d2	-0.2232888
107	0xbed1e4ee	-0.40994972
108	0x3e223212	0.15839413
109	0x3eceac5b	0.40365872
110	0xbe2654ba	-0.16243258
111	0x3e951808	0.29119897
112	0xbe06bed1	-0.13158728
113	0xbec7995a	-0.38984185
114	0x3e293f1c	0.1652798
115	0xbf019ae5	-0.50626975
116	0xbda1b653	-0.07896104
117	0x3ca3680e	0.019947078
118	0xbd9ff43c	-0.07810256
119	0x3e056ae0	0.13029051
120	0x3e3be549	0.18349184
121	0x3edeef97	0.43542168
122	0x3d904803	0.07044985
123	0x3dbf27d9	0.09333772
124	0x3ea19277	0.31557056
125	0x3e827b96	0.25484914
126	0xbe9a2ff7	-0.3011472
127	0xbdc97c33	-0.09838142
128	0xbe561daa	-0.20909753
129	0xbf0cecf9	-0.5504909
130	0x3b3b62e2	0.0028592874
131	0xbe89017f	-0.26758954
132	0xbe1bd9f4	-0.15219861
133	0xbe319f2b	-0.17345874
134	0x3e5f6eca	0.21819606
135	0xbe11a294	-0.14222175
136	0xbdaca659	-0.08430166
137	0xbe6a75c7	-0.22896491
138	0xbc0e555c	-0.008687343
139	0xbebede98	-0.372792
140	0xbe27dce2	-0.16392854
141	0xbd12ea4e	-0.03586798
142	0xbe655fef	-0.22399877
143	0x3e67986c	0.22616738
144	0xbcde0de0	-0.027106225
145	0x3f00c7a9	0.5030466
146	0xbd205694	-0.039145067
147	0x3e0ad9f3	0.13559704
148	0x3ea16437	0.3152177
149	0xbd8011a8	-0.06253368
150	0xbeaa0ef9	-0.33214548
151	0x3df786d5	0.12086264
152	0x3d9c8060	0.07641673
153	0x3ea16646	0.3152334
154	0xbe111eff	-0.1417198
155	0xbcef8464	-0.029237933
156	0x3cbc8ee7	0.02301736
157	0x3e5fea47	0.21866713
158	0x3e87846a	0.2646821
159	0x3c8ae888	0.016956583
160	0xbe9f396d	-0.310985
161	0x3ec2f9c7	0.3808119
162	0xbd421076	-0.04737898
163	0xbe58cdf1	-0.2117231
164	0x3df1432a	0.11780389
165	0xbde34da0	-0.1109879
166	0x3cb68529	0.022280293
167	0xbf013ed2	-0.5048648
168	0x3e9d4c5d	0.30722323
169	0xbd264c42	-0.04060007
170	0xbe632f35	-0.22185977
171	0x3e1cc767	0.15310441
172	0xbe4e13fa	-0.20124808
173	0x3e87acdd	0.26499072
174	0xbe8872aa	-0.26649982
175	0x3e8c9444	0.27456868
176	0x3e5ccc71	0.21562363
177	0x3ea53865	0.32269588
178	0xbe060fbc	-0.1309194
179	0x3f2e9a5a	0.6820427
180	0x3e8d5839	0.2760637
181	0xbc9c628d	-0.019089961
182	0x3d92fe81	0.07177449
183	0xbe29ec27	-0.16593991
184	0x3e8bb223	0.27284345
185	0xbd8b99a5	-0.06816415
186	0xbebdaa2b	-0.3704389
187	0x3d29570d	0.041342784
188	0x3df56ad1	0.11983264
189	0xbeb3c89b	-0.35113987
190	0x3dfc0018	0.123047054
191	0xbed58f4d	-0.41710892
192	0x3e0b71c1	0.13617612
193	0xbeb4f2b2	-0.35341412
194	0x3e83a39c	0.25710762
195	0xbddf9d21	-0.10918642
196	0xbdc95a98	-0.098317325
197	0x3df1db75	0.11809436
198	0x3e874dcf	0.2642655
199	0x3ed31173	0.4122425
200	0xbe7942db	-0.2434191
201	0xbee7d2bf	-0.45277974
202	0x3e4545a4	0.19264847
203	0x3c9a9c3e	0.01887333
204	0x3e32bc5f	0.1745467
205	0xbe129d9d	-0.14317937
206	0xbe253542	-0.16133597
207	0xbe54e78e	-0.20791456
208	0xbe8fe5c3	-0.28104982
209	0xbf05ef08	-0.5231786
210	0xbf03f3d7	-0.51543945
211	0xbe5406ae	-0.20705673
212	0xbd823802	-0.06358339
213	0x3e03a234	0.12854844
214	0x3dfd2a85	0.123616256
215	0x3e310f76	0.17291054
216	0x3eddc006	0.43310565
217	0xbef3741b	-0.4754952
218	0x3e09f029	0.1347052
219	0xbe12d31d	-0.14338346
220	0x3df090c2	0.1174636
221	0x3e7d584a	0.24740711
222	0xbe94bf15	-0.29052034
223	0x3d0381eb	0.03210632
224	0xbd5a77ed	-0.053337026
225	0x3eaa3242	0.3324147
226	0xbcf2e116	-0.029648345
227	0x3cf13c5e	0.02944773
228	0x3e347762	0.17623666
229	0xbd2803f1	-0.041019384
230	0x3c92b050	0.017906338
231	0xbe31cb88	-0.17362797
232	0x3ec58f86	0.38586062
233	0x3ec49622	0.38395792
234	0x3d27674b	0.040869992
235	0x3f093bc6	0.5360683
236	0xbd591e16	-0.053007208
237	0x3ebbef7b	0.36706147
238	0xbd8fb6b3	-0.07017269
239	0x3df8de34	0.12151757
240	0x3e71c8d8	0.23611772
241	0x3d55b306	0.052172683
242	0xbe77082a	-0.24124208
243	0x3e5bf904	0.2148171
244	0x3e87a38f	0.26491973
245	0x3f17e06d	0.5932682
246	0xbea44c57	-0.32089493
247	0xbe5f2b74	-0.2179392
248	0xbea646bd	-0.32475844
249	0x3ed9c3eb	0.42532286
250	0x3f11d6f7	0.56968635
251	0x3ed7d6e8	0.42156148
252	0x3e02673f	0.12734698
253	0x3dc3c549	0.095591135
254	0xbe8e0197	-0.27735588
255	0x3e998493	0.2998396

reward_layer.0.bias f4 [64]
0	0xbe65ea3c	-0.22452635
1	0xbe2d9745	-0.16952236
2	0x3e154fcd	0.14581223
3	0x3e6ac69c	0.22927326
4	0xbd1df9ec	-0.038568422
5	0xbd0f6a52	-0.035013504
6	0xbe369b2f	-0.17832635
7	0x3ea4064e	0.3203606
8	0x3ece821a	0.40333635
9	0x3d9955cd	0.07487068
10	0xbdcf40f5	-0.101198114
11	0xbe6e51e1	-0.23273422
12	0x3e6d0eef	0.23150228
13	0xbe913f49	-0.28368595
14	0xbe27a8fb	-0.16373055
15	0xbe734837	-0.23758017
16	0x3d849ec9	0.06475598
17	0xbbc4da23	-0.0060074492
18	0xbe592057	-0.21203743
19	0xbdc147e4	-0.0943754
20	0xbeb68b5f	-0.35653207
21	0x3ddced92	0.107875004
22	0x3e059b69	0.13047566
23	0xbdad4e5e	-0.08462213
24	0xbd70c69f	-0.05878317
25	0x3e447174	0.19183904
26	0xbe038f85	-0.12847717
27	0xbdab8047	-0.08374076
28	0xbe52585c	-0.20541519
29	0x3e20d434	0.15705949
30	0xbdb02dcb	-0.08602484
31	0x3e439cde	0.19102809
32	0x3e54cbab	0.20780818
33	0xbe8c8353	-0.27443942
34	0x3ebd1ad2	0.36934525
35	0xbedf9877	-0.4367101
36	0x3e9ed3ca	0.31020957
37	0x3e947f4f	0.2900338
38	0x3daf4dc8	0.085597575
39	0xbec12ac2	-0.37727934
40	0xbef609f5	-0.48054472
41	0x3e919798	0.2843597
42	0x3cd4bbdc	0.025968485
43	0xbe65ca44	-0.2244044
44	0xbdcf52de	-0.101232275
45	0x3ebc8034	0.3681656
46	0x3e6f86d7	0.23391281
47	0xbe463c7b	-0.19359009
48	0xbd0a8319	-0.03381643
49	0x3db6b9c0	0.08922148
50	0x3ea6bd8b	0.32566485
51	0xbddbe309	-0.10736663
52	0xbd6a56e1	-0.05721176
53	0x3ede145d	0.4337491
54	0xbd8947a2	-0.06703116
55	0xbd5c965e	-0.05385434
56	0xbebc1a12	-0.3673864
57	0xbed9e3ef	-0.42556712
58	0x3ccf5c28	0.025312498
59	0xbe39bdd1	-0.18138815
60	0x3edfc0ca	0.43701774
61	0xbd99a062	-0.07501294
62	0xbda23e4e	-0.0792204
63	0x3e54f357	0.20795952

reward_layer.2.weight f4 [64, 64]
0	0xbeed777a	-0.46380216
1	0x3e01b865	0.12667997
2	0xbcaf4a02	-0.021397594
3	0x3ed8fb02	0.42379004
4	0x3e0b1536	0.1358231
5	0x3e2d8c36	0.16948017
6	0xbe8e0460	-0.27737713
7	0x3e826087	0.2546427
8	0xbe0a02d0	-0.13477635
9	0x3dfd4fd1	0.123687394
10	0xbe97e7b0	-0.2966895
11	0xbe394c4d	-0.18095513
12	0x3d11f8ef	0.035637792
13	0xbe1d53fb	-0.15364067
14	0xbed8cac0	-0.42342186
15	0x3e3d3973	0.18478946
16	0xbeacb301	-0.3373032
17	0xbe6dbea4	-0.23217255
18	0x3e2bb511	0.1676829
19	0x3d974e2b	0.07387956
20	0x3e046190	0.12927842
21	0x3cc2b10f	0.023766069
22	0x3f108b2a	0.5646235
23	0xbe0acc2c	-0.13554448
24	0xbe13c7e3	-0.1443172
25	0xbdd686f7	-0.10474961
26	0xbea24c1e	-0.31698698
27	0xbeb5a4cd	-0.35477296
28	0x3d0ada3a	0.033899523
29	0x3ea03282	0.31288534
30	0xbd7cde56	-0.061735474
31	0x3ed02719	0.4065483
32	0xbd56c454	-0.052433327
33	0xbd6a2387	-0.057162788
34	0xbe450dd9	-0.19243564
35	0xbe2e6028	-0.17028868
36	0x3e285955	0.16440327
37	0x3cb01ae0	0.02149719
38	0x3e6c1440	0.230546
39	0xbed14032	-0.4086929
40	0xbe392171	-0.18079163
41	0x3d9f4c25	0.07778195
42	0xbe99709b	-0.29968724
43	0xbf09da60	-0.5384884
44	0x3d748c9c	0.059704408
45	0xbc49f601	-0.012326718
46	0x3eb55661	0.35417464
47	0xbe72e838	-0.23721397
48	0x3cedabec	0.029012643
49	0xbd2e74a1	-0.042591695
50	0x3ccd28ab	0.025043806
51	0xbe016803	-0.12637334
52	0x3e9d214c	0.30689466
53	0x3dd2d1a8	0.10293895
54	0x3dfcd334	0.12344971
55	0x3e24cf71	0.16094758
56	0xbe4838c3	-0.19552903
57	0xbe5c4151	-0.21509291
58	0x3e3f8986	0.18704805
59	0xbd9c4514	-0.07630363
60	0x3e95d748	0.2926581
61	0xbed48293	-0.4150587
62	0x3d976d2b	0.07393869
63	0xbdc668de	-0.096879706
64	0x3db6b3d8	0.08921021
65	0x3cb77d45	0.0223986
66	0x3d9b2b5f	0.07576632
67	0x3d37efef	0.044906553
68	0xbdfac944	-0.122454196
69	0xbd9d6940	-0.076860905
70	0x3cdae3c2	0.026719932
71	0xbccfcea7	-0.025367094
72	0x3d43fb6d	0.0478472
73	0x3bed8b58	0.007249277
74	0x3dc58ba9	0.09645779
75	0xbd8cc21a	-0.068729594
76	0x3cc17f31	0.02362022
77	0x3e1c5218	0.15265691
78	0xbd130792	-0.03589589
79	0xbd91ea2e	-0.07124744
80	0xbc8a05e7	-0.016848518
81	0x3d6021fc	0.05471991
82	0xbd4114a7	-0.047138836
83	0x3db4db91	0.088309415
84	0x3d0e0e29	0.034681473
85	0x3d9dd625	0.077068605
86	0xbdac8fdc	-0.084258765
87	0xbe097f7e	-0.1342754
88	0xbbc6fceb	-0.0060726306
89	0x3d0961c2	0.033540495
90	0x3d121586	0.035665058
91	0x3db87680	0.09006977
92	0xbd85e9c6	-0.06538729
93	0x3cd7de36	0.026351076
94	0x3d593ca3	0.053036343
95	0xbc839367	-0.016061498
96	0xbc25bd77	-0.010115973
97	0x3d716894	0.058937624
98	0x3d7d992a	0.061913647
99	0xbdace700	-0.08442497
100	0xbdf190e2	-0.11795212
101	0xbe0f360d	-0.13985462
102	0x3b1b0466	0.0023653745
103	0x3d26bd1f	0.040707704
104	0x3da29eb4	0.079404265
105	0x3da14858	0.078751266
106	0x3d8b97b7	0.06816047
107	0x3db2bc96	0.08727376
108	0x3ddca1e2	0.10773064
109	0x3c51d177	0.012806288
110	0xbd2edbe2	-0.042690165
111	0xbd7b8b03	-0.06141187
112	0xbb251a8a	-0.002519282
113	0x3d5db5cb	0.05412845
114	0xbdb9b44c	-0.09067592
115	0x3ced27a1	0.02894956
116	0x3c9151ae	0.017739143
117	0x3d18925d	0.037248958
118	0xbd5e4e09	-0.05427364
119	0xbe028abf	-0.1274824
120	0x3dfb09d6	0.122577354
121	0x3d8db723	0.06919696
122	0xbe35b0ad	-0.17743178
123	0x3dd7288e	0.10505782
124	0x3d4e575d	0.050376285
125	0x3e08df28	0.13366377
126	0x3cbe4a5f	0.023228822
127	0x3d795451	0.060871426
128	0xbd286be9	-0.041118536
129	0xbc9088de	-0.017643388
130	0x3dc6302c	0.09677157
131	0x3c387253	0.011257726
132	0xbc548c97	-0.012972972
133	0xbd2572bf	-0.040392634
134	0xbc778a22	-0.015108617
135	0xbdccfa1b	-0.10008641
136	0x3db3f3b6	0.087867185
137	0xbc70c8dd	-0.014696327
138	0xbcc254e4	-0.02372212
139	0xbdc7b93b	-0.09752127
140	0x3de5d053	0.11221375
141	0xbcb5f974	-0.022213675
142	0xbdaee014	-0.08538833
143	0xbc806154	-0.01567141
144	0xbda0d7bc	-0.07853648
145	0x3bfede53	0.007777968
146	0xbdd83f14	-0.10558906
147	0xbd1af57b	-0.037831765
148	0xbe3518cc	-0.1768524
149	0x3dae20ee	0.085023746
150	0xbd9eed48	-0.077601016
151	0xbd1911ac	-0.03737037
152	0x3e0568e0	0.13028288
153	0xbdace034	-0.08441201
154	0x3e1514a2	0.14558652
155	0xbd9b20fd	-0.075746514
156	0xbda84cde	-0.08217786
157	0xbd8ded91	-0.06930078
158	0xbc94ee6b	-0.018180093
159	0xbdc4453f	-0.0958352
160	0x3dce01b6	0.1005892
161	0x3d992e25	0.074795045
162	0x3d18368f	0.037161406
163	0xbdc39e33	-0.095516585
164	0xbcec7ef5	-0.028869132
165	0xbcd78671	-0.026309224
166	0xbd8a42f4	-0.067510515
167	0xbda0f20d	-0.078586675
168	0xbd176cb6	-0.03696891
169	0xbd18b4f0	-0.03728193
170	0x3d54e241	0.051973585
171	0x3c959d1a	0.018263388
172	0x3daea247	0.08527046
173	0x3d8ef5fb	0.06980511
174	0x3d70b48c	0.058765933
175	0x3dd74510	0.105112195
176	0xbc4b1648	-0.012395449
177	0xbdb81ec0	-0.0899024
178	0x3e1b30ab	0.15155284
179	0xbe0bdecc	-0.13659209
180	0x3cce2ef4	0.025168873
181	0x3d9a6c0b	0.07540139
182	0xbd9363d0	-0.07196772
183	0xbc9afdde	-0.018919881
184	0x3d92aabc	0.07161471
185	0x3db25dfb	0.087093316
186	0xbd45b54c	-0.0482686
187	0xbdfc83b5	-0.123298086
188	0xbc9b20af	-0.018936483
189	0x3e2fa7ff	0.17153929
190	0x3d5a85fc	0.053350434
191	0x3c5e0a97	0.0135523295
192	0xbc52d2c9	-0.012867638
193	0x3dd060d3	0.10174718
194	0x3ddea4ba	0.10871263
195	0xbd3d3298	-0.046190828
196	0x3dcfe5bb	0.101512395
197	0xbcb4e2e9	-0.022080855
198	0x3d31bd5c	0.043393478
199	0x3da04509	0.078256674
200	0x3ced263a	0.028948892
201	0xbd411bb7	-0.04714557
202	0xbdf1cd95	-0.1180679
203	0xbd9fa860	-0.07795787
204	0xbd204b37	-0.03913423
205	0xbcf05813	-0.029338872
206	0xbe387d40	-0.18016529
207	0x3d168b8e	0.036754183
208	0xbddb43f9	-0.10706324
209	0x3da1c9d7	0.07899826
210	0x3e226533	0.15858917
211	0xbb791dda	-0.0038012178
212	0x3aa6b87b	0.0012719774
213	0xbcd3de4d	-0.025862837
214	0x3e228c22	0.15873769
215	0xbdb4f1bd	-0.088351704
216	0xbdfeca21	-0.12440897
217	0xbe34228e	-0.17591307
218	0x3dc7db0e	0.09758578
219	0xbbafc478	-0.005363997
220	0x3dba085f	0.09083628
221	0xbdc50c04	-0.096214324
222	0x3daa743d	0.08322952
223	0xbd2f42aa	-0.042788185
224	0x3bec88f0	0.0072184727
225	0x3a6ffad0	0.00091545004
226	0xbd4170ba	-0.047226645
227	0xbdd7dead	-0.10540519
228	0xbcefbc10	-0.02926448
229	0xba745b6d	-0.0009321485
230	0x3ca91780	0.020641088
231	0xbd67c028	-0.05657974
232	0x3c0ae7a9	0.008478084
233	0xbde606cf	-0.112317674
234	0xbdd2d617	-0.10294741
235	0x3df6d901	0.12053109
236	0x3d9db05c	0.076996535
237	0x3de652f4	0.11246291
238	0x3e2fd425	0.1717077
239	0x3ade1372	0.0016943051
240	0xbd515943	-0.051110517
241	0x3d38b748	0.045096666
242	0xbca4cec3	-0.020118123
243	0x3de32a5d	0.110920645
244	0xbd1c7b07	-0.038203266
245	0x3e4232d7	0.18964706
246	0x3b7a0aea	0.0038153478
247	0xbda6d557	-0.0814616
248	0xbdd04dc4	-0.101710826
249	0xbdfab6e6	-0.12241916
250	0x3da01a09	0.07817466
251	0xbcb6b104	-0.022301205
252	0x3d242348	0.04007271
253	0x3dd2b628	0.1028865
254	0x3d9907a8	0.074721634
255	0x3d5a73a3	0.053332936

reward_layer.2.bias f4 [64]
0	0x3e00e41e	0.1258702
1	0x3d36dce2	0.044644244
2	0xbc63b909	-0.013899096
3	0xbdae280d	-0.08503733
4	0xbd9f532a	-0.07779534
5	0xbe8bd2ee	-0.27309364
6	0x3b6c1f72	0.0036029485
7	0x3c28fcea	0.010314206
8	0xbcd25d3e	-0.025679227
9	0xbceb8b6f	-0.02875301
10	0x3dc53909	0.09630019
11	0x3d036267	0.032076266
12	0x3de93980	0.113879204
13	0x3c0296f2	0.0079705585
14	0xbdcd5917	-0.10026758
15	0x3dcbc799	0.099501796
16	0x3d443b7b	0.047908287
17	0x3d391002	0.045181282
18	0xbe3b89da	-0.18314305
19	0xbc91d93b	-0.017803779
20	0xbd8539dc	-0.065051764
21	0xbc8de16e	-0.017319407
22	0xbdd9bdd3	-0.10631909
23	0xbcf8dcf7	-0.030378802
24	0x3d557b22	0.05211938
25	0x3af9841f	0.0019036568
26	0x3dfa5b59	0.122244544
27	0x3d956406	0.072944686
28	0xbe194219	-0.1496662
29	0x3d847328	0.06467277
30	0x3dab2da5	0.083583154
31	0xbd0abb0c	-0.033869788
32	0xbdcad3f0	-0.09903705
33	0x3cb54c6c	0.022131167
34	0xbd9461f2	-0.07245244
35	0xbe08cae3	-0.13358645
36	0x3cc90569	0.024538713
37	0xbce47161	-0.027886095
38	0x3bcaa9c6	0.0061847894
39	0x3d127f63	0.035766017
40	0xbbcb2096	-0.006198953
41	0x3d0b8972	0.034066625
42	0x3d265144	0.040604845
43	0xbe07e5e7	-0.13271295
44	0x3da89abd	0.08232639
45	0x3bf3d6cc	0.0074413773
46	0x3cfb8bec	0.030706368
47	0x3c7bf9df	0.015379398
48	0x3db86cfc	0.09005162
49	0x3c61040b	0.013733874
50	0x3e81e6c6	0.2537138
51	0xbcd9251f	-0.026506959
52	0xbce5faa2	-0.028073613
53	0xbbcca98a	-0.0062457966
54	0x3c85050e	0.016237762
55	0xbe255c08	-0.16148388
56	0xbdad00a1	-0.084473856
57	0x3d72ef16	0.05931004
58	0x3d1d1778	0.03835246
59	0xbe1bcd2b	-0.15214984
60	0xbcb0a22e	-0.021561708
61	0x3c99b617	0.018763585
62	0xbe0a38ad	-0.13498183
63	0x3d9f2e77	0.07772534

reward_layer.4.weight f4 [1, 64]
0	0x3e54d2dc	0.20783561
1	0x3c6240b3	0.013809371
2	0xbc587a33	-0.013212728
3	0xbc6a49b7	-0.014299802
4	0x3c355c0a	0.011069307
5	0x3e6e37b1	0.23263432
6	0x3b355899	0.0027671217
7	0xbd7e4b4e	-0.062083535
8	0xba856f20	-0.0010180213
9	0xbc9fbd88	-0.019499555
10	0xbc45c509	-0.012070903
11	0x3c34aab6	0.011027029
12	0xbb57b8ac	-0.003291647
13	0xba857be2	-0.0010184015
14	0x3c28f82c	0.010313075
15	0xbc8f474d	-0.017490054
16	0xbc1290d3	-0.008945662
17	0xbc0ceafc	-0.0086009465
18	0x3e1ff1fa	0.1561965
19	0xbc26dae5	-0.010184024
20	0x3c009499	0.007847928
21	0x3bca17c8	0.0061673857
22	0xbb82dfb7	-0.003993954
23	0x3a6121e6	0.000858812
24	0xbdd05ed5	-0.10174338
25	0xbc8a19ea	-0.01685806
26	0x3b0c7728	0.0021433327
27	0xb9fcbe92	-0.00048207171
28	0x3e0c02d2	0.13672951
29	0x3b436904	0.0029817233
30	0x3e7b8d9d	0.2456574
31	0x3c26829f	0.010162978
32	0x3d32ef64	0.043685332
33	0xbc4584be	-0.012055574
34	0xbc5c0529	-0.013428965
35	0x3e689fc1	0.22717191
36	0xbbdde790	-0.006771989
37	0xbd485b3c	-0.048915133
38	0x3c3be897	0.011469028
39	0x3c046d01	0.008082629
40	0x3bdec71d	0.0067986385
41	0x3ba2a82b	0.004963895
42	0xbda9e092	-0.082947865
43	0xbc139ef7	-0.009010068
44	0xba62a23e	-0.0008645392
45	0xbc5c71e8	-0.013454892
46	0x3ba148aa	0.0049219923
47	0x3ca92d4d	0.020651484
48	0x3d45f13e	0.04832577
49	0x3cad1a78	0.021130785
50	0xbd70cc7e	-0.05878877
51	0xba4a7fac	-0.0007724713
52	0x3b3e2562	0.002901398
53	0x3e70f172	0.23529604
54	0x3bcea7a2	0.0063066045
55	0x3c179e32	0.009254025
56	0x3c8d9ebb	0.017287603
57	0xbd07c586	-0.033147357
58	0x3bb1c0fe	0.005424618
59	0x3bc59ce6	0.0060306666
60	0xbbf925f4	-0.0076034013
61	0xbbdcec42	-0.0067420313
62	0x3bdc58fd	0.0067244754
63	0x3b20aaea	0.0024515935
