DQN/dueling-DQN/Double_DQN_MountainCar-v0.pth (torch, 7484 bytes, 6 tensors)

common_layer.0.weight f4 [30, 2]
00000000: cb1d 613e 0b28 0041 de19 0ebf b326 11c1
00000010: 2906 e9bf ccef 89c1 2856 d53d 188e eabe
00000020: 789c 5dc0 ea70 8fc0 ea5d cc3e f6b7 0741
00000030: a091 a13c 7d22 303f 9a86 683d fcb8 1cc1
00000040: fd30 cdbe d9bc 12c1 3e2c db3e 4058 96bd
00000050: 8c51 763d 9859 eb40 153c f7be beed d140
00000060: 4338 2840 8da2 46c1 40e9 abbc 6a98 b7be
00000070: a583 203e 1ff3 0941 7587 4abf 10d6 0cc1
00000080: 2cbe 553e d2ab ee3e 97bf 00bf 53b1 ef40
00000090: fca1 83bf 5839 11c1 239a 353e 2c71 0cc1
000000a0: fce8 d4be 54f4 343e d2ad f1be 10ec ccc1
000000b0: 3d45 6abe 6742 0441 1696 4dbe 853f d63d
000000c0: 0005 a6bd 93eb 1c3f 60e5 2f3e 7d98 053f
000000d0: 6e54 12bf 1f27 0541 caf9 bfbf 3768 e440
000000e0: 0a58 29bf c5b0 f640 7022 0240 f12f 2e41
0.21984021 8.009776 -0.5550822 -9.071948 -1.8205005 -17.242088 0.104168236 -0.45811534
-3.462675 -4.4825335 0.399154 8.482412 0.01972276 0.68802625 0.05676899 -9.795162
-0.40076438 -9.171105 0.42807192 -0.07341051 0.060136363 7.3546867 -0.48288026 6.5602713
2.628434 -12.414685 -0.020985246 -0.3585847 0.15675218 8.621856 -0.7911294 -8.802261
0.20873326 0.46615463 -0.5029234 7.490396 -1.0283809 -9.0765 0.1773458 -8.77763
-0.41584003 0.17671329 -0.47202927 -25.615265 -0.22877975 8.2662115 -0.20076784 0.10461334
-0.081064224 0.6129696 0.17177343 0.52185804 -0.5716008 8.322051 -1.4998105 7.1377215
-0.6614996 7.7090783 2.033352 10.886704

common_layer.0.bias f4 [30]
00000000: 6795 4a40 409f df3e 9107 de3d 66a0 00bf
00000010: 1aed dc3e d368 4740 ba85 25bf 15f5 073f
00000020: 5775 ef3e e092 a3be dd9e 3440 f2ec 8940
00000030: ef62 c93f 918c 11bf d49e 2d40 dbf1 f63e
00000040: 2327 2abf 2800 4840 481b 2d3f d7d2 013f
00000050: 2d23 16bf 79e0 933e 7938 4d40 92b4 76be
00000060: 2ea0 18bf f00c 4bbe caed 4b40 c727 8e40
00000070: 14d8 6340 83cd b03f
3.1653688 0.43676186 0.10841287 -0.5024475 0.43149644 3.115773 -0.64657176 0.5310834
0.4676921 -0.31947994 2.8221962 4.310174 1.5733317 -0.5685511 2.712819 0.48231396
-0.6646597 3.1250095 0.6761975 0.5071234 -0.58647424 0.28882197 3.2065718 -0.2409232
-0.59619415 -0.19829154 3.1863885 4.4423556 3.5600634 1.3812717

common_layer.2.weight f4 [30, 30]
00000000: 8a67 82bd 3073 133d c091 e0bc 5e96 e4bd
00000010: fc6d 313d 85f3 dbbd 34c4 2d3e 5ba0 30be
00000020: f49f 0dbe 0f14 babd 08b8 ac3c c002 853d
00000030: 4ff6 a0bd 703d 32be 08fc 61bd 2092 293e
00000040: 90e4 98bd 04ed 0a3d 58ed 9f3c 9a01 c7bd
00000050: b84b a13c 880b 84bd fe03 17be da95 843d
00000060: cb73 31be b947 c7bd 2f5d f1bd 33f5 fbbd
00000070: f01d 1fbd 5b9f 25be 0cf3 063d 54f7 37be
00000080: bc21 4b3d 00f2 1c3d 6847 19be 9d5a 50be
00000090: e84d 04be 2004 b8bd 8223 143e b0ae c53c
000000a0: 9835 013e f1e4 863d b7cc c0bd d6f8 e8bd
000000b0: baf8 dd3d 28d9 d03d 101f ea3d 75bc e9bd
000000c0: c01c 42be 26a8 06be 7cde 113d 9077 283c
000000d0: 4947 9cbd f453 b23d 4c47 f7bd 2cb3 03bd
000000e0: e2eb 5abd d7bb da3b 0501 393d d47d c03c
000000f0: 2e71 0a3e 13d6 2f40 e784 97c0 923a 04be
00000100: d3ba 24c0 9dc6 ec3e b6a0 bebd 977e 5740
00000110: 7d23 5940 70c2 be3c 4b89 ad3e a42a 383f
00000120: 477c c5c0 e080 9d3d 8aa5 a13e 6fea 5840
00000130: 6035 a83b 4b62 ee3e dc03 4640 b532 5b40
00000140: b06b 043d ef11 02c1 259d fd3e c280 f13c
00000150: 3064 d3bd 1806 353d c362 f73e 5317 cf3e
00000160: 0afb 833e 9e85 b7be 0bd1 8e3c 7b0a 4e40
00000170: 349e 77c0 782c 07bd 4387 2dc0 6b55 993d
00000180: 7803 3dbd 4ae2 8240 9b58 8540 88eb c4bc
00000190: 2172 37bd 7830 9a3e fd75 96bf ecf5 c0bd
000001a0: 51d2 9dbe 87af 6340 842a e53d 66c4 a5bd
000001b0: f9b2 3440 227a 7e40 bd77 c3bd 3fa0 a1c0
000001c0: f925 45be 07a9 163e 90bf 2fbe 6b16 3abe
000001d0: d5fe 15bc 7308 773e 7cb4 903d fe5f 5abf
000001e0: abaf f2bd 00f8 8b3a 583f c03c 11bb b3bd
000001f0: fc86 ac3d 284a e2bc ff00 30be c250 c3bd
00000200: 2155 38be 841e 5c3d 380d c23d cc8e 8dbd
00000210: 7035 8cbc 94ee 3dbd e4f4 533d 9485 563d
00000220: 00da 5e3d a0fc cabb 8524 30be a871 a23c
00000230: da03 d9bd 2008 62bc f175 d7bd 807a 1ebb
00000240: dd0a 06be 7c34 ac3d 4edf d1bd a070 ecbd
00000250: 7073 6cbc c8a5 a9bc fc41 0fbe 32b3 a2bd
00000260: 9356 a6bd c0ab 5ebc ec2c d33d a029 febb
00000270: 60c1 ccbc 1b52 2ebe e6cd 253e 5810 00bd
00000280: 92e5 123e 3e46 13be 22f2 e0bd ec23 febd
00000290: 9651 183e a7e2 f3bd 0083 7ebd b72f 2fbe
000002a0: 3ab7 823d b493 01bd 524e 0cbe 0cd3 183e
000002b0: 5ad9 883d 5036 14bd 3088 103d a001 313e
000002c0: 707f 403d a4bd 30bd 1069 a4bc 604a f03d
000002d0: 5ecf 06be 4af7 4640 2167 74c0 6832 31be
000002e0: acf8 21c0 1e97 c2bd d0f4 1f3d 7a74 7a40
000002f0: 0886 6940 6d4e 07be 7af5 d1bd 1bc7 f03e
00000300: f8a7 90bf cceb 173d f5de 193d d5ef 5240
00000310: 60bc b9bb 21b6 f9bd c20a 3f40 b3b6 8040
00000320: 486f fdbc 75ed 9ec0 b8a3 0fbe 2d27 0dbd
00000330: 425b 0e3e eef7 323e cd26 063d 556a 8d3d
00000340: fe0e de3d 6b8b 68bf 44d7 073e 6b5a 12be
00000350: acc2 b63d 98a9 053e 00bb b33a 65af b3bd
00000360: f701 cabd fc34 09be 3495 2dbd 9e0b f4bd
00000370: d0db 7b3c 444c 2fbe acd3 803d 543e 1cbd
00000380: 50c2 383d 4450 e43d 9047 2bbe e009 02be
00000390: 103e 603d 1072 963c e858 953c 540b 1bbd
000003a0: 0049 7b3a eaae acbd 0c23 0f3d 9093 cbbc
000003b0: 8033 16be ff43 07be 388b e4bd 8019 2a3d
000003c0: 2c61 a3bd 1a94 3740 21fe 58c0 fe53 0a3e
000003d0: 9b43 22c0 1baf 69bd b253 09be 100a 7540
000003e0: 855d 6e40 2421 3a3e 973e 383e df8c b03e
000003f0: 7d1f 83bf eaf4 293e b3de 4fbd 6d31 4140
-0.06367405 0.035998523 -0.027413249 -0.11161493 0.04331778 -0.10739807 0.16969377 -0.17248671
-0.13830549 -0.09085857 0.021083847 0.06494665 -0.0785948 -0.17406249 -0.055171996 0.16559649
-0.0746547 0.033917442 0.019522354 -0.09717102 0.019689426 -0.06447512 -0.14747617 0.064738944
-0.17329328 -0.09730477 -0.117853515 -0.123026274 -0.03884691 -0.1617407 0.03294663 -0.17965442
0.04959272 0.038316727 -0.14968646 -0.20347066 -0.12920344 -0.08985162 0.1446667 0.024131149
0.126181 0.06586636 -0.09414046 -0.11375587 0.108384565 0.10197669 0.11431706 -0.114128985
-0.1895628 -0.13150081 0.03561257 0.010282412 -0.07630784 0.08707419 -0.12074146 -0.032153293
-0.05344761 0.0066752243 0.045166988 0.0234975 0.13519737 2.747441 -4.7349734 -0.12912968
-2.5739028 0.4624528 -0.09307997 3.3671014 3.392791 0.023286074 0.3389381 0.71940064
-6.1714206 0.076905966 0.3157161 3.3893087 0.005133316 0.46559367 3.0939856 3.42497
0.03232926 -8.129378 0.49533954 0.029480342 -0.103218436 0.044195265 0.48317537 0.40447482
0.25777465 -0.3584413 0.017433664 3.2193897 -3.869031 -0.033001393 -2.7113807 0.07486995
-0.046145886 4.090123 4.167066 -0.024038091 -0.044786576 0.30115104 -1.1754757 -0.09421906
-0.3082452 3.5575883 0.1118975 -0.08094101 2.8234236 3.9762044 -0.09544323 -5.0508113
-0.19252767 0.14712916 -0.17162919 -0.18172614 -0.009154995 0.24124317 0.07065675 -0.8530272
-0.11849912 0.0010678768 0.023467705 -0.087759145 0.08424184 -0.027623251 -0.1718788 -0.09536888
-0.18001224 0.05374004 0.094751775 -0.06912002 -0.017115325 -0.046370104 0.051747218 0.052373484
0.05440712 -0.006194666 -0.17201431 0.019829586 -0.10596438 -0.013795882 -0.105205424 -0.0024181902
-0.13090082 0.08408448 -0.1024767 -0.11544919 -0.014431819 -0.020708933 -0.13990015 -0.07944335
-0.081219815 -0.013590753 0.103113025 -0.007756427 -0.024994552 -0.17023508 0.16191825 -0.031265587
0.14345387 -0.14382264 -0.10983683 -0.12409195 0.14874873 -0.11908465 -0.06213665 -0.17108046
0.06382604 -0.031635 -0.13701752 0.14924258 0.066820815 -0.03618461 0.03528613 0.17285776
0.046996534 -0.043149605 -0.020069629 0.11732936 -0.13165042 3.1088433 -3.8187945 -0.17304385
-2.5308027 -0.095014796 0.03905183 3.9133592 3.6488056 -0.13213511 -0.10251899 0.47026905
-1.130126 0.037090108 0.037566144 3.2958882 -0.005668208 -0.121929415 2.9850316 4.022302
-0.030936852 -4.9664865 -0.14027297 -0.03446119 0.13902 0.1747739 0.032751847 0.06905047
0.10842703 -0.90837735 0.13265711 -0.14292304 0.089238495 0.13052976 0.0013712347 -0.08773688
-0.09863656 -0.13399118 -0.04237862 -0.11916278 0.015372232 -0.17118937 0.06290373 -0.03814538
0.045107186 0.11148122 -0.16726518 -0.1269908 0.054746687 0.018364936 0.01823087 -0.0378526
0.0009585768 -0.084318 0.034945533 -0.024850637 -0.14668083 -0.13209532 -0.11159366 0.041528225
-0.079775184 2.8684144 -3.3905108 0.13508603 -2.5353763 -0.05705176 -0.13410833 3.8287392
3.724458 0.18176705 0.17992626 0.34482476 -1.0243984 0.16597334 -0.050749492 3.0186417

common_layer.2.bias f4 [30]
00000000: 38b2 083e 1531 1bbd 7249 903e 3dbc 7b3e
00000010: 2e57 0e3e 5b73 1fbe 24b3 853e 18b9 30be
00000020: be59 fe3d 82e8 2c3e 46bf dc3e 7819 4fbd
00000030: 5911 23be cf27 17bd 8624 1640 2af3 343d
00000040: 484f 043d c00c c3bc 7f23 be3d 1e68 17bd
00000050: 73f3 853e e1ad cd3e b707 3d40 07d4 213f
00000060: aa06 863d 3a19 9c3e 6644 4f40 d02d 8cbd
00000070: e642 253f 68d7 063c
0.13349235 -0.037888605 0.28181034 0.24583526 0.13900444 -0.15571348 0.26113236 -0.17258108
0.12419461 0.1688557 0.4311468 -0.0505614 -0.15924586 -0.0369032 2.3459792 0.04417721
0.03230217 -0.02380979 0.09284114 -0.03696453 0.261623 0.40171722 2.9535959 0.63214153
0.0654424 0.30487996 3.2385497 -0.068446755 0.64555204 0.008230068

fc_A.0.weight f4 [3, 30]
00000000: 44b2 27bd 3098 39bd 89da 52c1 64e9 2dc1
00000010: 96c0 1bbe fcef a83d 3798 2dc1 dcea 343e
00000020: 52a0 19c1 d349 c9c0 6c8e 03c1 2b97 38be
00000030: 8979 f5bd 8dcf 05bb 21ff 2240 fb49 0a3e
00000040: 60cb ecbd dc83 133e 48fd 073e 8964 f0bb
00000050: 66a5 56c1 fb29 3cc1 052e 7340 d836 46c1
00000060: cca7 a73d de8a aec0 b19b 2f40 28f3 dd3d
00000070: d5e4 4bc1 5688 153e 9059 60bd 1cbe 0ebe
00000080: 609e 52c1 86d2 30c1 f67c 0d3e 5844 a83d
00000090: e517 30c1 c348 c7bd c69b 19c1 f488 bfc0
000000a0: 343d 03c1 9cb8 0cbd c6d0 b93d bd39 883d
000000b0: b3bc 2a40 0923 c6bd 17c2 98bd 1494 993d
000000c0: 21ff f2bd 10b0 8f3d 60fa 59c1 6179 43c1
000000d0: 94bf 7e40 f332 4cc1 bd76 2a3d ec36 b0c0
000000e0: 9bcd 2a40 a889 c23d 01c8 56c1 7812 96bd
000000f0: d86c e33d b079 273d c9b3 27c1 6fa6 24c1
00000100: 6896 8ebc 6448 c33d 4003 2cc1 68aa 8e3d
00000110: d3fd 1dc1 bd1a 0cc1 1314 1fc1 ba5d 29be
00000120: d3e3 22bd f5a9 34be ebeb 5340 aaf9 55bc
00000130: 7a5a 1bbe 8070 c3bc fb92 153e e605 a8bc
00000140: 284a 74c1 1f70 1ac1 e8d0 6a40 b28d 5fc1
00000150: c0d4 35bd 43f3 fcc0 4241 2740 aca5 e93b
00000160: 4819 70c1 3a58 26bd
-0.04094149 -0.045311153 -13.178353 -10.86948 -0.15210184 0.082488984 -10.849662 0.17667717
-9.601641 -6.2902617 -8.222271 -0.18026416 -0.119860716 -0.00204179 2.5468218 0.13504784
-0.11562228 0.14405769 0.13280213 -0.0073362035 -13.4153805 -11.760249 3.7996838 -12.38839
0.081863016 -5.4544516 2.7438776 0.10837394 -12.743367 0.1460279 -0.054772913 -0.13939708
-13.163666 -11.051397 0.138172 0.082161605 -11.005834 -0.09730675 -9.600531 -5.985468
-8.202442 -0.034355745 0.090730235 0.06651638 2.6677673 -0.09674651 -0.07458895 0.07498947
-0.11865068 0.07016003 -13.623627 -12.2171335 3.980443 -12.762439 0.041617144 -5.5067043
2.6687992 0.09498912 -13.423829 -0.073277414 0.11104745 0.040887535 -10.481393 -10.290633
-0.017405704 0.09535292 -10.750793 0.06966096 -9.874469 -8.756528 -9.942401 -0.1653966
-0.03976805 -0.17642958 3.3112743 -0.013060013 -0.15171233 -0.023857355 0.1460685 -0.020510625
-15.268105 -9.652373 3.6690006 -13.972094 -0.044392347 -7.904695 2.613358 0.0071303453
-15.006172 -0.040611483

fc_A.0.bias f4 [3]
00000000: bb29 0140 ab1f e23f 37a3 0b40
2.018172 1.7665914 2.1818368
