DQN/flappy_bird/trained_models/Double_Dueling_DQN_Flappy_bird - 1.pth (torch, 75988 bytes, 7 tensors)

common_layer.0.weight f4 [128, 8]
-0.22394061 -1.0917906 0.037599057 -0.26963642 0.28068963 -0.15578274 -0.36867845 0.3617006
-0.22292413 -0.38447893 -0.124736555 0.10155498 0.16314724 -0.06721688 0.012065211 -0.014897827
-0.19768658 -0.23162133 0.22031876 0.0499681 0.16206305 0.0031227632 0.15924802 -0.19143945
0.19760647 0.13688466 0.074857324 0.06801358 -0.24141727 -0.1183459 0.18596652 -0.25014243
0.17621729 0.09400844 0.017681833 -0.09896643 0.034136526 -0.21060471 0.044111013 0.012390179
0.027864547 0.1523391 0.1343769 0.024304133 0.16367036 -0.15317748 -0.15284814 -0.2705718
-0.6013426 0.11061115 -0.14166704 0.18046685 0.17686842 0.021067899 -0.23904766 0.21067712
-0.4429483 -0.6234623 -0.05765493 0.07781267 -0.10524767 0.1308709 -0.2409292 0.22340518
-3.2609918 -2.3200483 0.09692508 0.19880407 -0.19547582 0.015712254 -0.019684235 0.032278284
0.34361568 1.973375 -0.18078178 -0.00756323 -0.3540294 0.17761905 -0.14265864 0.12677644
0.23414983 0.13293406 0.23452961 0.37504047 -0.19724566 -0.11650673 0.040692538 -0.005505755
-0.87677014 -1.0283138 0.14365262 -0.13415241 0.087911345 0.1144666 0.025533173 -0.027598673
-0.32595357 -0.23750225 0.22558978 -0.29639786 -0.23123312 -0.05019614 0.1192157 -0.08723989
-0.2722868 0.2482259 -0.2965459 -0.18831144 -0.08817309 -0.2677844 -0.11438228 -0.33772776
-0.20890549 -0.1528488 0.10157276 0.12468902 0.13264762 0.11393114 0.43279383 -0.35292646
0.019874975 -0.21110812 0.08520003 -0.23425682 0.19371992 -0.22471094 -0.24747567 0.12631185
-1.1320618 0.6317432 0.030771272 0.101973005 -0.1571097 0.03201574 -0.26007935 0.20199828
-0.31293812 -0.028911024 -0.08434558 -0.063277125 0.06099677 -0.1270784 -0.018638432 -0.2451522
0.40885487 1.4924577 0.030162567 -0.14896686 -0.23840325 0.12576541 -0.08868008 0.09287331
-0.31458172 0.2743186 -0.22071242 -0.08926883 -0.3174094 -0.19737306 0.19395998 0.13339725
-3.1945786 0.95550936 0.226144 0.25470763 -0.25714394 0.051952817 -0.10212955 0.120582245
-0.14162426 -0.3819436 0.21857396 -0.06296407 -0.0562819 -0.04668222 -0.08656657 0.033561353
0.28555137 0.09848327 0.2598493 0.012823652 -0.11939007 0.036940087 0.30791095 -0.3234212
-0.08928126 -0.33924156 -0.2762253 -0.025244776 0.019230032 0.2335776 -0.24051933 0.1014453
0.21494055 0.3767866 -0.27247888 0.056410074 -0.13937144 0.06411045 -0.123906225 0.17215365
-0.24006103 0.35780036 0.30841514 -0.18945937 -0.012357426 -0.11532556 -0.073803864 0.31024462
-0.06209156 -0.13779896 -0.33633706 -0.23711804 0.05842775 0.23823547 -0.2246735 0.12287638
0.19868326 -0.009414373 -0.11052749 0.08798582 -0.41793284 0.15490952 0.2528235 -0.2557654
-0.129319 -0.0057854056 0.2553734 -0.11450899 -0.16418743 -0.26518434 0.29247758 -0.12064481
-0.09403138 -1.1763314 0.026739188 -0.08627015 0.09905368 -0.10356047 -0.11656067 0.09307373
0.23696676 0.3377199 -0.34127033 -0.10054174 -0.15335214 -0.32878026 0.23294076 -0.2823712
-0.46770218 -0.01123946 -0.090334624 0.23765685 0.15648752 0.09892115 -0.32201087 0.29794264
00000000: b050 65be cbbf 8bbf 7801 1a3d c90d 8abe
00000010: 8db6 8f3e 8385 1fbe 6cc3 bcbe d230 b93e
00000020: 3946 64be 6cda c4be e175 ffbd 0ffc cf3d
00000030: 1210 273e 01a9 89bd 2aad 453c 0416 74bc
00000040: 5a6e 4abe 242e 6dbe 3e9b 613e 5aab 4c3d
00000050: dbf3 253e 46a7 4c3b ea11 233e b408 44be
00000060: 5a59 4a3e 7e2b 0c3e cc4e 993d b44a 8b3d
00000070: 1736 77be 565f f2bd 026e 3e3e ab12 80be
00000080: 4e72 343e 7f87 c03d 7ed9 903c e9ae cabd
00000090: bed2 0b3d c3a8 57be c0ad 343d 2d00 4b3c
000000a0: 3144 e43c c8fe 1b3e 199a 093e 7619 c73c
000000b0: 3499 273e 8fda 1cbe 3984 1cbe 6388 8abe
000000c0: 97f1 19bf 1988 e23d 2a11 11be 4dcc 383e
000000d0: ff1c 353e 9696 ac3c e9c8 74be bebb 573e
000000e0: 1fca e2be 3a9b 1fbf 9327 6cbd 405c 9f3d
000000f0: 178c d7bd 0503 063e 25b6 76be 54c4 643e
00000100: 17b4 50c0 ac7b 14c0 a880 c63d 4b93 4b3e
00000110: d02a 48be fcb6 803c d540 a1bc 3c36 043d
00000120: 65ee af3e 8d97 fc3f dc1e 39be f9d4 f7bb
00000130: 5743 b5be c5e1 353e 1b15 12be afd1 013e
00000140: f9c4 6f3e de1f 083e 8828 703e 4e05 c03e
00000150: c4fa 49be 159b eebd 38ad 263d 9f69 b4bb
00000160: 0274 60bf c99f 83bf ac19 133e 405f 09be
00000170: dd0a b43d 776d ea3d f22a d13c 9d16 e2bc
00000180: 63e3 a6be ca33 73be 0201 673e 76c1 97be
00000190: 60c8 6cbe 789a 4dbd 5c27 f43d d4aa b2bd
000001a0: 2d69 8bbe ee2e 7e3e ddd4 97be b7d4 40be
000001b0: 1894 b4bd 091b 89be 4241 eabd a7ea acbe
000001c0: 52eb 55be 6584 1cbe 6105 d03d f55c ff3d
000001d0: c7d4 073e bb54 e93d 2797 dd3e c7b2 b4be
000001e0: d8d0 a23c ba2c 58be 5a7d ae3d 05e1 6fbe
000001f0: 845e 463e a01a 66be 436a 7dbe e557 013e
00000200: 67e7 90bf ecb9 213f 0914 fc3c 39d7 d03d
00000210: 5de1 20be f022 033d 1f29 85be a3d8 4e3e
00000220: 6d39 a0be d0d6 ecbc 60bd acbd 7097 81bd
00000230: c0d7 793d d720 02be a0af 98bc 2e09 7bbe
00000240: 6d55 d13e db08 bf3f 7d17 f73c c58a 18be
00000250: fb1f 74be a6c8 003e e79d b5bd 5d34 be3d
00000260: db10 a1be 7d73 8c3e 7002 62be 94d2 b6bd
00000270: 7c83 a2be 2a1c 4abe 729d 463e 4a99 083e
00000280: fa73 4cc0 439c 743f 4b92 673e 0a69 823e
00000290: 5fa8 83be 7acc 543d 4c29 d1bd d3f3 f63d
000002a0: f305 11be 1d8e c3be dad1 5f3e 4ef3 80bd
000002b0: d987 66bd db35 3fbd d049 b1bd a177 093d
000002c0: ca33 923e 99b1 c93d f80a 853e 4b1a 523c
000002d0: c882 f4bd 7d4e 173d 81a6 9d3e 7797 a5be
000002e0: 18d9 b6bd 12b1 adbe 676d 8dbe 22ce cebc
000002f0: 4d88 9d3c f72e 6f3e b34a 76be 8ec2 cf3d
00000300: 6019 5c3e 2cea c03e 5a82 8bbe 400e 673d
00000310: 63b7 0ebe 574c 833d 8cc2 fdbd 0c49 303e
00000320: 8fd2 75be 9c31 b73e 97e8 9d3e a301 42be
00000330: cd76 4abc cf2f ecbd 7b26 97bd 62d8 9e3e
00000340: b853 7ebd 2c1b 0dbe 5f34 acbe 12cf 72be
00000350: f051 6f3d 00f4 733e cf10 66be 9da6 fb3d
00000360: a073 4b3e be3e 1abc 3d5c e2bd e931 b43d
00000370: 4bfb d5be 9aa0 1e3e 1572 813e aff3 82be
00000380: 336c 04be 8093 bdbb 4dc0 823e b083 eabd
00000390: c020 28be 3ec6 87be 9fbf 953e a014 f7bd
000003a0: 8693 c0bd 0792 96bf 240c db3c 68ae b0bd
000003b0: a8dc ca3d 8317 d4bd 5cb7 eebd 719d be3d
000003c0: 6aa7 723e 9fe9 ac3e fcba aebe d4e8 cdbd
000003d0: 5808 1dbe e355 a8be 0688 6e3e f592 90be
000003e0: a976 efbe b625 38bc 5c01 b9bd 515c 733e
000003f0: 443e 203e 2c97 ca3d 9cde a4be f08b 983e

common_layer.0.bias f4 [128]
0.2373612 -0.5508498 0.046655063 0.09106451 0.28248203 -0.2744244 -0.12603708 0.17863266
0.087339826 -0.16401719 -0.6967622 0.026984995 -0.3192133 -0.3470424 -0.15238738 0.27341115
0.31111988 -0.0056165457 -0.49395308 0.08851248 0.2646216 0.51525706 0.36783585 0.39629352
0.2894859 0.3192541 0.026626794 -0.30098638 0.10982865 0.682092 0.2747003 -0.22246449
-0.24088627 0.86104023 0.07196353 -0.49363506 -0.44970977 -0.006876348 -0.19155903 0.24176285
-0.24915569 0.25484654 -0.50940746 -0.43744135 -0.3324601 0.25093266 0.039617892 -0.4172244
-0.13047978 -0.2981047 -0.551682 0.55080444 0.30750093 0.4574311 0.18726304 -0.22235236
0.2804944 -0.2621953 0.16293585 -0.040158216 -0.22233756 0.3433228 0.036228687 -0.14873448
-0.042000197 0.31122378 0.40433747 0.26029274 0.06708798 -0.18787605 0.53001237 0.060696274
0.25652176 0.4700458 0.0013906062 -0.5693522 0.34513494 0.4295786 0.055509683 -0.5749543
-0.035618734 -0.0062292553 -0.31723377 -0.15353201 0.055223037 -0.2737724 -0.29834348 0.07165077
0.268721 0.032166127 -0.2378316 -0.49587765 0.54109275 0.4716346 -0.5818235 0.08931056
0.49596274 0.18157184 0.34197623 -0.16994505 0.9273023 0.23690742 -0.35512623 0.49453637
0.20520534 0.15494335 -0.19137634 0.65427995 0.59085304 0.27669322 0.5667425 0.11970465
0.575386 0.12474478 -0.15240715 0.03103441 0.4115295 0.091739364 0.46313342 0.01451621
1.0353769 -0.1749908 0.25389096 -1.6478136 0.21331571 0.31233105 -0.02622363 0.24952292
00000000: d00e 733e 7e04 0dbf 6119 3f3d 0880 ba3d
00000010: 7ca1 903e 5b81 8cbe dd0f 01be 7beb 363e
00000020: 39df b23d 1ff4 27be 025f 32bf a30f dd3c
00000030: ed6f a3be 8baf b1be 700b 1cbe 8cfc 8b3e
00000040: 1b4b 9f3e 000b b8bb 6be7 fcbe 0846 b53d
00000050: 7b7c 873e e3e7 033f fb54 bc3e fce6 ca3e
00000060: 7f37 943e 4675 a33e 6f20 da3c e31a 9abe
00000070: d8ed e03d 959d 2e3f 85a5 8c3e bbcd 63be
00000080: e4aa 76be 226d 5c3f 9d61 933d bcbd fcbe
00000090: 5c40 e6be fd52 e1bb 0d28 44be ae90 773e
000000a0: ab22 7fbe 3f7b 823e 8768 02bf 50f8 dfbe
000000b0: 3638 aabe 3f7a 803e 5f46 223d 709e d5be
000000c0: 7e9c 05be 2ea1 98be 083b 0dbf 8501 0d3f
000000d0: c370 9d3e 6934 ea3e e2c1 3f3e 56b0 63be
000000e0: f69c 8f3e 763e 86be a8d8 263e f17c 24bd
000000f0: 75ac 63be 02c8 af3e 8864 143d da4d 18be
00000100: 6608 2cbd b958 9f3e 5205 cf3e 1745 853e
00000110: 6c65 893d 9462 40be e4ae 073f a89c 783d
00000120: d256 833e d8a9 f03e 0045 b63a 11c1 11bf
00000130: 87b5 b03e baf1 db3e 1f5e 633d 3430 13bf
00000140: f3e4 11bd c81e ccbb 776c a2be 7f37 1dbe
00000150: 8d31 623d e52b 8cbe 7ac0 98be a4bd 923d
00000160: cd95 893e a1c0 033d 208a 73be ade3 fdbe
00000170: 0e85 0a3f 177a f13e 63f2 14bf 74e8 b63d
00000180: d4ee fd3e f8ed 393e 8217 af3e 1306 2ebe
00000190: af63 6d3f dc97 723e 1bd3 b5be df33 fd3e
000001a0: 5921 523e 78a9 1e3e 29f8 43be e47e 273f
000001b0: 2542 173f bcaa 8d3e 0916 113f b627 f53d
000001c0: 7f4c 133f 317a ff3d 9f10 1cbe e03b fe3c
000001d0: ffb3 d23e d9e1 bb3d d31f ed3e 66d5 6d3c
000001e0: 3b87 843f ca30 33be fffd 813e 8eeb d2bf
000001f0: 6f6f 5a3e dbe9 9f3e f0d2 d6bc f082 7f3e

common_layer.2.weight f4 [128, 128]
-0.09993338 -0.035640884 0.12544498 -0.030273132 -0.019870397 0.026779272 -0.020512404 0.10621415
-0.13457409 -0.46252885 -0.16872938 -0.0013558071 -0.053441066 0.02920077 -0.018827472 0.19525826
-0.17972572 -0.079984054 -1.8389354 0.0657339 -0.15581682 0.22256483 -0.67226243 -0.028027372
-0.24697758 0.1142795 0.0039966693 0.066992 -0.085352086 0.3748476 0.018593475 -0.10419858
0.052489765 -0.11412145 -0.18305899 -0.36009866 -0.034043074 -0.09904897 -0.12852798 0.08327504
-0.063439965 -1.3004481 -0.023320084 -0.05461849 -0.31397468 -0.08336073 -0.005910997 -0.038043074
-0.07060882 0.02704928 0.0138534 -0.29244927 -0.3132479 0.097414754 0.12694363 0.08303582
-0.10811055 0.0039898083 -0.073354945 -0.30162844 0.06046226 0.08483737 0.00028711182 0.06983972
-0.08284972 -0.06403786 -0.19242011 0.042951964 0.065643355 -0.12122632 0.25501713 -0.034909833
0.04649795 0.1608163 0.00040751696 0.060146295 -0.06665324 -0.13812768 0.11691874 6.3218096e-05
0.054046854 0.079588726 -0.01927232 -0.35418633 0.26852766 -0.10667814 0.0016085908 0.011142984
-0.14412875 0.056451466 -0.07968132 0.17208682 0.039437275 0.067647226 -0.28050557 -0.10317214
0.121808775 -0.034817796 -0.22989905 -0.2956644 0.27363685 0.09399725 -0.09063716 0.15382352
0.031658053 -0.19118093 0.33039755 -0.3973269 -0.29985353 0.022991987 0.11122169 -0.063032545
-0.3727234 0.07954459 -0.15879327 0.039120622 0.16722693 0.060733277 0.0062548425 -0.07663921
0.2795116 -0.24689673 -0.016829558 -0.013801392 0.045114327 0.07265007 0.08000622 0.00749766
-0.046221703 -0.040928084 0.042317078 0.03660652 -0.023620306 0.08546021 -0.06833864 -0.049426574
-0.061539464 0.034939684 0.005518093 -0.052540727 -0.044179253 -0.030744366 -0.031089796 0.04751535
-0.04278437 0.00815478 0.014651224 0.048600636 0.013591564 0.040279165 -0.07959737 -0.04489667
-0.023114188 0.0451511 -0.063099936 0.0003713593 -0.010900438 -0.082856804 -0.054368 -0.063183464
0.010233857 0.0020608536 0.06567011 -0.022805642 -0.075446524 0.028449103 -0.01384741 0.007597372
0.021730512 -0.04347062 -0.04875012 0.013236545 -0.04772214 0.025677934 -0.053189974 0.033627525
-0.086803794 -0.018393204 -0.016956188 0.014922719 -0.023386037 0.0547483 0.043793816 0.086302824
-0.0074536595 0.073085286 -0.030635914 -0.022059614 0.031095251 -0.016230926 0.026225239 -0.08353254
-0.0075483173 -0.05598822 -0.057982408 0.08807535 0.04203274 -0.071115136 0.039400157 0.08526685
0.007952544 -0.07755996 0.055832095 -0.051239125 0.056278177 -0.08619394 -0.046092078 0.073981114
-0.011205085 -0.051757567 0.03754762 0.054328334 -0.0038129343 0.08475918 -0.08406777 -0.08223093
-0.031885464 -0.057721984 -0.021160044 0.017584097 0.030584836 0.08737308 -0.01728505 -0.042275578
0.019275317 0.028408922 0.021329248 -0.03700934 0.0066666007 -0.032150395 -0.007128626 -0.013864721
0.01227746 0.03703042 -0.08679926 0.0492738 0.04093295 0.059927337 0.02527317 -0.0069263997
-0.08190571 0.0011905691 -0.0053437995 0.03662651 -0.029314352 -0.07483298 0.075175434 0.03243394
-0.06096297 -0.019933276 0.029201783 0.025121927 0.035359267 0.040386565 0.025805011 -0.0063120574
00000000: dfa9 ccbd 2dfc 11bd a674 003e 5cff f7bc
00000010: 3ec7 a2bc 3460 db3c a109 a8bc ce86 d93d
00000020: cacd 09be 95d0 ecbe 65c7 2cbe 56b5 b1ba
00000030: 05e5 5abd 7436 ef3c 123c 9abc c8f1 473e
00000040: 050a 38be aece a3bd 3c62 ebbf 7f9f 863d
00000050: 728e 1fbe 09e8 633e 6419 2cbf a999 e5bc
00000060: b1e7 7cbe 5f0b ea3d 7ef6 823b 1a33 893d
00000070: 13cd aebd 06ec bf3e 5851 983c 1166 d5bd
00000080: 82ff 563d 82b8 e9bd d173 3bbe da5e b8be
00000090: c070 0bbd 30da cabd d79c 03be 1b8c aa3d
000000a0: d0ec 81bd 1575 a6bf c309 bfbc a3b7 5fbd
000000b0: 4ac1 a0be 08b9 aabd 09b1 c1bb 0ed3 1bbd
000000c0: 5b9b 90bd 7496 dd3c 5ff9 623c e9bb 95be
000000d0: 0762 a0be 6381 c73d 83fd 013e af0e aa3d
000000e0: 1069 ddbd f0bc 823b 1e3b 96bd 0b6f 9abe
000000f0: 46a7 773d 37bf ad3d 7f87 9639 2108 8f3d
00000100: 1dad a9bd 4826 83bd c709 45be 66ee 2f3d
00000110: 0670 863d 8145 f8bd 9b91 823e 9dfd 0ebd
00000120: a274 3e3d 07ad 243e 00a8 d539 f65b 763d
00000130: 7e81 88bd 5871 0dbe 1873 ef3d f593 8438
00000140: 3c60 5d3d 6aff a23d fce0 9dbc e957 b5be
00000150: 757c 893e 127a dabd 5ad7 d23a 1091 363c
00000160: 7d96 13be a739 673d f62f a3bd 8737 303e
00000170: fb88 213d a18a 8a3d 6d9e 8fbe ea4b d3bd
00000180: e176 f93d 1b9d 0ebd a86a 6bbe 5361 97be
00000190: 211a 8c3e a181 c03d fa9f b9bd ea83 1d3e
000001a0: e0ab 013d efc4 43be de29 a93e 6e6e cbbe
000001b0: 6786 99be b159 bc3c 33c8 e33d 3517 81bd
000001c0: 9ad5 bebe 46e8 a23d b49a 22be f23c 203d
000001d0: 893d 2b3e 75c3 783d 6cf5 cc3b 05f5 9cbd
000001e0: 251c 8f3e 7fd2 7cbe 24de 89bc 3c1f 62bc
000001f0: cdc9 383d 8fc9 943d 4dda a33d eeae f53b
00000200: f852 3dbd 35a4 27bd ac54 2d3d b8f0 153d
00000210: 5f7f c1bc c305 af3d 21f5 8bbd 8573 4abd
00000220: ce10 7cbd ea1c 0f3d 1ed1 b43b f234 57bd
00000230: 4ef5 34bd 9cdb fbbc 07b0 febc 759f 423d
00000240: aa3e 2fbd a09b 053c b00b 703c 7611 473d
00000250: 27af 5e3c c4fb 243d f203 a3bd 92e5 37bd
00000260: f759 bdbc 5cf0 383d 8a3a 81bd 00b3 c239
00000270: c097 32bc d4b0 a9bd fbb0 5ebd 5566 81bd
00000280: e8ab 273c 630f 073b 0d7e 863d e6d2 babc
00000290: b583 9abd 180e e93c 3fe0 62bc 60f3 f83b
000002a0: 3004 b23c 400e 32bd 35ae 47bd 18de 583c
000002b0: 4a78 43bd 885a d23c bbdd 59bd 04bd 093d
000002c0: 30c6 b1bd 58ad 96bc b4e7 8abc 6c7e 743c
000002d0: 1394 bfbc c13f 603d 2561 333d 89bf b03d
000002e0: d43d f4bb bdad 953d 2bf8 fabc 5db6 b4bc
000002f0: 78bb fe3c b8f6 84bc 50d6 d63c 1c13 abbd
00000300: e057 f7bb e753 65bd f67e 6dbd d960 b43d
00000310: 862a 2c3d d0a4 91bd 0f62 213d 63a0 ae3d
00000320: 634b 023c c2d7 9ebd 32b0 643d 1ee0 51bd
00000330: f283 663d 7386 b0bd 0ccb 3cbd 6983 973d
00000340: 8895 37bc beff 53bd 88cb 193d 6387 5e3d
00000350: 6ce2 79bb 3996 ad3d b92b acbd b168 a8bd
00000360: 559a 02bd e36d 6cbd d457 adbc 860c 903c
00000370: 0d8d fa3c a8f0 b23d 6199 8dbc 2829 2dbd
00000380: 45e7 9d3c d4b9 e83c adba ae3c 1b97 17bd
00000390: 8073 da3b 22b0 03bd 4097 e9bb db28 63bc
000003a0: 6627 493c 36ad 173d cfc3 b1bd 53d3 493d
000003b0: 4fa9 273d 5e76 753d ae09 cf3c daf6 e2bb
000003c0: 2ebe a7bd df0c 9c3a 0a1b afbb ae05 163d
000003d0: a724 f0bc 0942 99bd 94f5 993d 73d9 043d
000003e0: 4fb4 79bd 1c4b a3bc 9438 ef3c 80cc cd3c
000003f0: e1d4 103d 626c 253d 0865 d33c 60d5 cebb

common_layer.2.bias f4 [128]
0.07948543 -0.07331777 0.09084394 -0.04153514 -0.05025841 -0.054042794 -0.0005373903 -0.0766649
-0.079134285 0.01654631 -0.16225216 0.06268581 -0.015334774 -0.062725 -0.26299992 -0.011149185
-0.118092775 0.026083965 -0.15211487 -0.095561855 0.086464 0.019542001 0.07916349 0.024286803
0.04264321 -0.010386583 -0.1349957 -0.059361488 -0.23787977 -0.23332424 -0.030598123 -0.05302932
0.026926823 -0.16741268 -0.7252866 -0.061524138 -0.024405075 0.021286642 0.00054175634 -0.040116843
-0.5993748 0.1607133 -0.022457248 0.03048868 -0.103950135 -0.1290161 -0.08694322 0.030077657
0.031082178 0.13325311 -0.004032247 -0.08064879 0.05729911 -0.040178206 0.022592459 -0.135681
-0.13659577 -0.002171362 -0.04989965 -0.007122299 0.045264214 -0.17324938 -0.052821703 0.028615313
-0.058792632 -0.102929294 -0.13228938 -0.14018099 0.047032204 -0.18591733 -0.016592018 -0.18983632
0.5786172 -0.028063191 0.0071142055 0.07075313 0.025022978 -0.0389492 0.02470689 -0.010898062
-0.021877408 0.25277764 -0.09318132 0.002981343 0.002713711 0.06948913 -0.14559777 -0.087001875
-0.012477041 -0.008220034 -0.15934438 0.11281768 -0.14614047 -0.05416573 -0.21233462 -0.07775121
-0.15609698 -0.046471316 0.03767824 -0.051213123 0.083681636 -0.032731615 0.08630719 0.026012002
0.048691403 0.019174276 -0.027119506 -0.13325383 -0.077188544 0.064256325 0.011314539 0.03789998
0.03126611 0.004848472 -0.2085296 -0.11130073 0.0487263 -0.06207771 -0.15946293 -0.0216418
-0.008894669 -0.06244374 0.027812133 -0.056217525 0.05744564 0.11958749 0.024322076 -0.053815875
00000000: 42c9 a23d a127 96bd 630c ba3d c020 2abd
00000010: c3db 4dbd fa5b 5dbd a7df 0cba 7d02 9dbd
00000020: 2811 a2bd 218c 873c 6e25 26be 6b61 803d
00000030: b43e 7bbc f775 80bd eda7 86be 12ab 36bc
00000040: a0da f1bd 0aae d53c 00c4 1bbe efb5 c3bd
00000050: 0a14 b13d 8c16 a03c 7820 a23d 1ef5 c63c
00000060: a6aa 2e3d 7d2c 2abc 503c 0abe 0825 73bd
00000070: c196 73be 8dec 6ebe eaa8 fabc 4635 59bd
00000080: a495 dc3c 3b6e 2bbe 62ac 39bf bc00 7cbd
00000090: 27ed c7bc 5361 ae3c a704 0e3a 8f51 24bd
000000a0: a070 19bf 0792 243e 43f8 b7bc 65c3 f93c
000000b0: cfe3 d4bd cc1c 04be 490f b2bd 6b65 f63c
000000c0: 0da0 fe3c 8173 083e f020 84bb 312b a5bd
000000d0: 79b2 6a3d e791 24bd d213 b93c f6ef 0abe
000000e0: c3df 0bbe 694d 0ebb 9363 4cbd 2d62 e9bb
000000f0: f866 393d 4968 31be 925b 58bd a96a ea3c
00000100: 8bd0 70bd 98cc d2bd de76 07be 9b8b 0fbe
00000110: d7a4 403d 1d61 3ebe fceb 87bc 7464 42be
00000120: 4220 143f c7e4 e5bc 481e e93b 04e7 903d
00000130: fdfc cc3c 3289 1fbd 1b66 ca3c c98d 32bc
00000140: 4038 b3bc 126c 813e d9d5 bebd a362 433b
00000150: 84d8 313b 5150 8e3d 9517 15be 0a2e b2bd
00000160: 816c 4cbc 52ad 06bc 2c2b 23be f50c e73d
00000170: d9a5 15be e2dc 5dbd 3f6e 59be 073c 9fbd
00000180: e3d7 1fbe b558 3ebd 8054 1a3d dac4 51bd
00000190: 4761 ab3d 9611 06bd d3c1 b03d 1f17 d53c
000001a0: a370 473d 5f13 9d3c ba29 debc b173 08be
000001b0: 0715 9ebd d298 833d 9e60 393c 023d 1b3d
000001c0: e410 003d eedf 9e3b c988 55be a3f1 e3bd
000001d0: 3b95 473d 3245 7ebd 404a 23be 254a b1bc
000001e0: f2ba 11bc 02c5 7fbd 45d6 e33c 5944 66bd
000001f0: 1f4c 6b3d 49ea f43d 173f c73c 096e 5cbd

critic_layer.0.weight f4 [1, 128]
0.027872162 0.05413438 -0.05108218 0.0026385512 -0.0014940704 0.0008747091 -0.06942583 0.041005485
-0.0005650493 -0.0010521519 0.024763925 -0.017665405 -0.056579225 0.016903521 0.014940016 0.0031770004
-0.045478083 0.016936934 -0.09193473 -0.061503697 0.027656168 -0.0070296293 0.032479912 -0.013917169
0.00037220182 -0.027719498 -0.03910186 -0.05217698 0.084198974 0.011454265 -0.05427367 0.06272268
0.061245747 0.034295514 -0.120570004 0.047112644 -0.0022693195 0.0338444 0.005627365 0.03194006
-0.0022374825 -0.0013954081 0.0014722404 0.01458 -0.016434908 -0.0069317087 -0.0110524725 0.038755335
-0.065088 0.01999282 -0.07187681 -0.02646068 0.004155455 -0.038941395 -0.009807814 -0.012479666
0.005290722 0.059555855 0.0025684915 -0.013041533 -0.006905289 0.021880005 -0.015610309 -0.010445322
0.028616056 0.025924662 0.030372119 0.04553236 0.038879685 0.009121096 -0.06698106 -0.00042016248
-0.0062281084 -0.02140009 -0.047664642 -0.0014476987 -0.023347301 0.010139697 0.049026143 0.0034784966
-0.001504209 0.05025084 0.055189982 -0.008966236 -0.020348066 -0.002331044 0.018881496 0.048772655
0.046234325 -0.013400995 0.013732332 0.013534833 0.019552972 0.04065638 -0.056434277 -0.1442209
0.0031759562 -0.005262294 -0.0021691357 0.004136468 -0.12853706 -0.07770179 0.047334176 -0.04064888
-0.06886933 0.012845354 -0.026588816 -0.17803872 -0.021282177 -0.012793984 0.042838484 -0.0004794939
0.010327047 -0.00674073 -0.121541016 -0.048724797 -0.03869595 -0.025045691 -0.0302463 0.019300098
-0.03903859 0.0061422926 0.017985793 -0.0762079 0.037837736 -0.04712924 0.0061533623 -0.027884837
00000000: 2954 e43c 03bc 5d3d 8c3b 51bd 8beb 2c3b
00000010: afd4 c3ba bc4c 653a 212f 8ebd 5ef5 273d
00000020: d11f 14ba 5ce8 89ba b7dd ca3c 0ab7 90bc
00000030: 9ebf 67bd 4179 8a3c f8c6 743c 3935 503b
00000040: 3a47 3abd 53bf 8a3c 4748 bcbd 4deb 7bbd
00000050: 308f e23c ce58 e6bb a809 053d d604 64bc
00000060: 1524 c339 0014 e3bc 4629 20bd 87b7 55bd
00000070: 8370 ac3d abaa 3b3c 114e 5ebd c074 803d
00000080: d2dc 7a3d 7479 0c3d 68ed f6bd 30f9 403d
00000090: ddb8 14bb 6da0 0a3d c265 b83b 95d3 023d
000000a0: baa2 12bb 20e6 b6ba 31f8 c03a f4e0 6e3c
000000b0: 80a2 86bc 6323 e3bb 6e15 35bc eabd 1e3d
000000c0: db4c 85bd fcc7 a33c 2634 93bd 11c4 d8bc
000000d0: 7c2a 883b 0381 1fbd f4b0 20bc 8377 4cbc
000000e0: cb5d ad3b d7f0 733d 2354 283b 27ac 55bc
000000f0: c345 e2bb b23d b33c 62c2 7fbc db22 2bbc
00000100: 386c ea3c f55f d43c f3ce f83c 2480 3a3d
00000110: 4e40 1f3d a670 153c 5e2d 89bd 4149 dcb9
00000120: 2915 ccbb 3e4f afbc 003c 43bd b5c0 bdba
00000130: d742 bfbc f920 263c a3cf 483d 7df7 633b
00000140: e128 c5ba d3d3 4d3d e40e 623d 1fe7 12bc
00000150: fdb0 a6bc 6ec4 18bb 5ead 9a3c d6c5 473d
00000160: 3460 3d3d d98f 5bbc 93fd 603c 34c1 5d3c
00000170: 8e2d a03c 4e87 263d a127 67bd a5ae 13be
00000180: b423 503b 526f acbb 0f28 0ebb 358b 873b
00000190: 389f 03be 1e22 9fbd 7be1 413d 717f 26bd
000001a0: 5d0b 8dbd 5275 523c cad0 d9bc c84f 36be
000001b0: f657 aebc dc9d 51bc 6877 2f3d 9564 fbb9
000001c0: c632 293c 57e1 dcbb 7fea f8bd a793 47bd
000001d0: a57f 1ebd 9f2c cdbc 17c7 f7bc 3d1b 9e3c
000001e0: eee6 1fbd 4945 c93b f156 933c e312 9cbd
000001f0: befb 1a3d 970a 41bd 25a2 c93b be6e e4bc

actor_layer.0.weight f4 [2, 128]
-0.021482248 0.036034163 0.07165682 0.010406392 0.047993183 0.0075209583 0.025213392 -0.06869938
0.0065529193 0.020461945 0.0009681221 0.0037639833 0.04827063 0.012492674 -0.031101724 -0.013351367
-0.03227328 0.019904261 -0.035987325 0.06516959 -0.022179896 0.019138332 -0.025803424 0.04069897
0.011534558 -0.062952586 0.003984974 0.0765569 -0.066404365 -0.018631024 0.058187805 -0.0681783
-0.06376379 -0.049580365 0.1191099 0.038336344 -0.002601482 0.05081037 -0.053828824 0.035750568
0.01638035 0.020482829 0.028203351 -0.015925728 0.059781663 0.01332298 0.036545362 -0.03908464
0.08919233 -0.0069154208 -0.037332937 0.03222929 -0.0057888296 0.013402334 0.05940518 -0.0012479981
-0.00027803998 0.0027810251 0.018263176 0.06302043 -0.0063351407 0.025155807 0.033483107 0.011327117
-0.015537549 -0.017207598 0.03766069 -0.037117764 -0.08651879 0.0029840812 -0.047196094 0.011676089
-0.0018994595 0.023287077 -0.07125338 -0.06260651 -0.020682191 -0.037941746 0.0033252027 0.16535455
0.032890156 -0.040324505 -0.07129252 0.0041443785 0.052755732 -0.008750197 -0.011160922 -0.035532314
0.006623822 0.004659814 0.009558499 0.03472781 -0.0030442365 0.041092947 0.025482854 -0.011587422
0.000255365 0.0027638243 -0.0032511223 -0.0040877145 -0.04331006 0.022079304 0.035082683 -0.0015538653
0.06081325 -0.01872717 -0.012701696 0.18079367 0.018182509 -0.007913737 -0.031000266 -0.02472505
0.0016138839 -0.015687669 0.11805122 0.016799109 0.0018432345 -0.0132020395 0.0011733192 -0.049457982
0.045596447 -0.00602799 -0.030960208 0.06708553 0.021704782 0.019279568 -0.0034228736 0.045219783
-0.03844887 0.02517379 -0.03964681 -0.007967731 0.016019186 -0.0051307864 -0.024690278 -0.07520267
0.0035209018 -0.0109356465 -0.0023204633 0.013311305 0.016887058 -0.05850961 -0.018369172 0.0035164682
-0.020540284 0.044809334 0.061677475 0.08364111 -0.015781771 0.044907086 -0.028829005 0.017347785
0.052464273 -0.026209965 -0.009477232 -0.030762788 0.0025860395 -0.021239234 0.05166793 0.0017684506
-0.07235105 -0.005370327 0.105481245 0.049808707 0.0068635936 -0.02383003 -0.00072607334 -0.005579413
0.019567948 0.018966882 0.0190564 -0.017180985 -0.063797764 -0.0005506987 -0.02414284 -0.029245911
0.00884735 -0.0039831316 0.08396356 0.04077414 -0.014443265 -0.014486651 -0.016895942 0.000926261
-0.012030511 0.0121587515 0.030859668 0.07440703 -0.004323582 0.014896215 0.0009949543 0.0154041955
0.023541052 -0.024408042 0.024520101 -0.044994656 -0.081551656 0.0058556097 0.017619198 0.0020304988
-0.019269075 0.037880536 -0.019879954 -0.05242728 -0.07211977 -0.03603492 -0.029498028 0.044440992
0.0052726516 -0.022747496 -0.06227181 0.0041150376 0.055578217 0.03802012 -0.019022144 -0.04063594
0.002194186 -0.015536729 0.040498972 0.03959698 -0.023653 -0.056312025 0.08510532 -0.00058916595
-0.00667048 0.005169195 -0.0028268609 -0.0058383113 -0.054976773 0.05859586 0.13730182 0.06607798
0.043029163 -0.018115407 0.024286048 0.17449874 0.057315983 0.0035522229 0.04080121 -0.0022679276
-0.019716207 -0.013000443 0.1291928 0.045489985 0.02311054 0.03349499 -0.013747191 -0.034670763
0.04676117 0.0011798457 -0.0116044115 0.0808737 -0.06512815 0.075909756 -0.0023169252 0.027191702
00000000: 8afb afbc 8f98 133d d0c0 923d 927f 2a3c
00000010: 8094 443d 5f72 f63b 518c ce3c 43b2 8cbd
00000020: dfb9 d63b cf9f a73c 93c9 7d3a 29ad 763b
00000030: 6db7 453d 13ae 4c3c 0bc9 febc b1bf 5abc
00000040: fd30 04bd 430e a33c 7267 13bd a277 853d
00000050: 9db2 b5bc fec7 9c3c b461 d3bc f7b3 263d
00000060: 71fb 3c3c 49ed 80bd 6394 823b ddc9 9c3d
00000070: 03ff 87bd 17a0 98bc 5656 6e3d 11a1 8bbd
00000080: 9796 82bd c814 4bbd e4ef f33d 9206 1d3d
00000090: a07d 2abb 891e 503d 9d7b 5cbd 306f 123d
000000a0: 1530 863c 9bcb a73c b70a e73c ac76 82bc
000000b0: 9edd 743d a148 5a3c 97b0 153d 3717 20bd
000000c0: 78aa b63d c19a e2bb 6cea 18bd dc02 043d
000000d0: 39b0 bdbb 7795 5b3c d952 733d de93 a3ba
000000e0: e5c5 91b9 dc41 363b a89c 953c db10 813d
000000f0: 0397 cfbb 8d13 ce3c 9525 093d 5f95 393c
00000100: 3491 7ebc f3f6 8cbc 1842 1a3d cc08 18bd
00000110: c330 b1bd 9390 433b b150 41bd 114d 3f3c
00000120: 49f7 f8ba 8ac4 be3c 4bed 91bd d837 80bd
00000130: b36d a9bc ce68 1bbd a5eb 593b b452 293e
00000140: d4b7 063d 4f2b 25bd d001 92bd 91cd 873b
00000150: 6516 583d fc5c 0fbc 4ddc 36bc 558a 11bd
00000160: a50c d93b 5ab1 983b 409b 1c3c c03e 0e3d
00000170: d081 47bb 1451 283d 6bc1 d03c 2cd9 3dbc
00000180: 83e2 8539 4721 353b c810 55bb 3cf2 85bb
00000190: e465 31bd a8df b43c dcb2 0f3d 11ab cbba
000001a0: 5017 793d b969 99bc c61a 50bc fa21 393e
000001b0: 7cf3 943c 9ea8 01bc 45f4 fdbc 308c cabc
000001c0: f588 d33a 6d83 80bc d7c4 f13d 499e 893c
000001d0: b098 f13a 5e4d 58bc 0fca 993a 7494 4abd
000001e0: 57c3 3a3d 7286 c5bb 43a0 fdbc 2364 893d
000001f0: 3ace b13c 2ff0 9d3c 4a52 60bb 6138 393d
00000200: 907c 1dbd 4439 ce3c b264 22bd 168b 02bc
00000210: ab3a 833c 2820 a8bb 4443 cabc dc03 9abd
00000220: eebe 663b 6d2b 33bc ea12 18bb a917 5a3c
00000230: ba56 8a3c c6a7 6fbd f27a 96bc 8c74 663b
00000240: 1944 a8bc fe89 373d 85a1 7c3d 084c ab3d
00000250: c648 81bc 7ef0 373d ce2a ecbc f11c 8e3c
00000260: c7e4 563d 48b6 d6bc 6446 1bbc 3e02 fcbc
00000270: 8b7a 293b e7fd adbc c0a1 533d 5bcb e73a
00000280: ca2c 94bd 91f9 afbb 8d06 d83d 3704 4c3d
00000290: ffe7 e03b 3237 c3bc f555 3eba 82d3 b6bb
000002a0: f64c a03c 6f60 9b3c 2b1c 9c3c 23bf 8cbc
000002b0: 67a8 82bd c45c 10ba 35c7 c5bc 1f95 efbc
000002c0: 7af4 103c ee84 82bb 16f5 ab3d c902 273d
000002d0: 72a3 6cbc 6b59 6dbc 5c69 8abc 53d0 723a
000002e0: 9f1b 45bc 8035 473c 6acd fc3c b762 983d
000002f0: d6ac 8dbb 410f 743c 2069 823a e161 7c3c
00000300: 2ad9 c03c 60f3 c7bc 61de c83c 514c 38bd
00000310: 8e04 a7bd 6ae0 bf3b 2356 903c 1e12 053b
00000320: 2eda 9dbc 9f28 1b3d 49db a2bc fdbd 56bd
00000330: 88b3 93bd 5a99 13bd d9a5 f1bc c207 363d
00000340: 35c6 ac3b f558 babc ba10 7fbd 70d7 863b
00000350: fca5 633d fcba 1b3d 54d4 9bbc df71 26bd
00000360: 55cc 0f3b c48d 7ebc 40e2 253d 7130 223d
00000370: f0c3 c1bc 70a7 66bd b34b ae3d 4272 1aba
00000380: 0b94 dabb 5a62 a93b db42 39bb 4e4f bfbb
00000390: 532f 61bd 3602 703d d998 0c3e e453 873d
000003a0: 593f 303d c366 94bc 89f3 c63c ccaf 323e
000003b0: 2ac4 6a3d 69cc 683b 2b1f 273d 83a1 14bb
000003c0: e283 a1bc cfff 54bc 1e4b 043e b553 3a3d
000003d0: 5152 bd3c 0b32 093d e63b 61bc ee02 0ebd
000003e0: a488 3f3d 0da5 9a3a 6e20 3ebc 1ca1 a53d
000003f0: e861 85bd 9376 9b3d 8ed7 17bb 22c1 de3c

actor_layer.0.bias f4 [2]
0.008005239 0.060019623
00000000: 6828 033c 23d7 753d
