DQN/flappy_bird/trained_models/Double_Dueling_DQN_Flappy_bird.pth (torch, 75988 bytes, 7 tensors)

common_layer.0.weight f4 [128, 8]
-0.062837675 -1.2453345 0.13321269 -0.14139186 0.35249773 -0.15045135 -0.26586008 0.42289135
-0.28641 -0.33103257 -0.08577022 0.16521448 0.15955102 -0.081013724 0.036794253 -0.033032294
-0.18941775 -0.29008865 0.3650266 0.14781749 0.14451888 -0.08402426 0.22742704 -0.2427575
0.19760647 0.13688466 0.074857324 0.06801358 -0.24141727 -0.1183459 0.18596652 -0.25014243
0.22219197 0.16216762 -0.107190736 -0.09317019 0.07249377 -0.22536238 0.0372439 0.039391167
0.027864547 0.1523391 0.1343769 0.024304133 0.16367036 -0.15317748 -0.15284814 -0.2705718
-0.5377191 0.057936694 -0.18098216 0.19798087 0.17588188 0.013294044 -0.20769586 0.20368366
-0.32066056 -0.71456224 -0.014389428 0.07831701 -0.08099439 0.14228767 -0.21450248 0.25317878
-3.539947 -2.2874022 0.09925247 0.21078594 -0.19254264 0.01945989 -0.03063565 0.021398403
0.3911725 1.543327 -0.110404 0.06750651 -0.37296304 0.07837843 -0.07435608 0.08522383
0.35114706 0.19776566 0.4336001 0.43156216 -0.14051154 0.007034016 0.04088556 0.024004763
-0.937764 -0.96024257 0.12001434 -0.11565592 0.114525944 0.11897556 0.029914346 -0.011978484
-0.32595357 -0.23750225 0.22558978 -0.29639786 -0.23123312 -0.05019614 0.1192157 -0.08723989
-0.2722868 0.2482259 -0.2965459 -0.18831144 -0.08817309 -0.2677844 -0.11438228 -0.33772776
-0.17447706 -0.46141884 0.22162524 0.25824648 0.103170104 0.0074092825 0.47797605 -0.44806224
0.019874975 -0.21110812 0.08520003 -0.23425682 0.19371992 -0.22471094 -0.24747567 0.12631185
-1.3904785 0.619009 0.038259123 0.10549597 -0.15071322 0.04236668 -0.2584501 0.20626183
-0.31293812 -0.028911024 -0.08434558 -0.063277125 0.06099677 -0.1270784 -0.018638432 -0.2451522
0.3898308 1.2449867 0.036520228 -0.08620756 -0.22372767 0.0045740134 -0.06357101 0.094102114
-0.31458172 0.2743186 -0.22071242 -0.08926883 -0.3174094 -0.19737306 0.19395998 0.13339725
-3.2916443 0.83808 0.2262298 0.30430967 -0.19279408 0.089180626 -0.10171882 0.15683162
-0.07316783 -0.5752569 0.23857246 -0.00965297 -0.030186307 -0.061366674 -0.042183768 0.053864487
0.22883256 -0.18932603 0.38322616 0.19495374 -0.13696831 -0.13792111 0.43665951 -0.3815915
-0.054943938 -0.5365977 -0.20237386 0.07579794 -0.019509615 0.16022842 -0.16459359 0.04799436
0.18552352 0.43664053 -0.36684138 0.06341583 -0.13084713 0.072290935 -0.11972405 0.17794943
-0.099407375 0.18001674 0.3996957 -0.0782386 0.04299443 -0.1049943 0.0015582207 0.3446179
-0.051142614 -0.16385087 -0.44640008 -0.26180935 0.05994309 0.23160829 -0.20683773 0.14426044
0.2655729 -0.18704681 -0.15440354 0.15457177 -0.3852434 0.1309905 0.2871322 -0.23258907
-0.129319 -0.0057854056 0.2553734 -0.11450899 -0.16418743 -0.26518434 0.29247758 -0.12064481
-0.1630794 -1.169429 0.08679027 -0.15385196 0.07751549 -0.0885168 -0.14184846 0.08376733
0.23696676 0.3377199 -0.34127033 -0.10054174 -0.15335214 -0.32878026 0.23294076 -0.2823712
-0.42535028 -0.0006485471 -0.15666367 0.22060314 0.24023476 0.21042944 -0.36483458 0.43882966
00000000: 0ab1 80bd 1f67 9fbf e868 083e 07c9 10be
00000010: 957a b43e eb0f 1abe d01e 88be 3785 d83e
00000020: 55a4 92be 1a7d a9be 4ca8 afbd fc2d 293e
00000030: 5861 233e 86ea a5bd 92b5 163d df4c 07bd
00000040: baf6 41be 8086 94be c4e4 ba3e 785d 173e
00000050: c2fc 133e e914 acbd a2e2 683e 6c95 78be
00000060: 5a59 4a3e 7e2b 0c3e cc4e 993d b44a 8b3d
00000070: 1736 77be 565f f2bd 026e 3e3e ab12 80be
00000080: 4b86 633e 450f 263e d186 dbbd 03d0 bebd
00000090: 9d77 943d 65c5 66be 0f8d 183d a258 213d
000000a0: 3144 e43c c8fe 1b3e 199a 093e 7619 c73c
000000b0: 3499 273e 8fda 1cbe 3984 1cbe 6388 8abe
000000c0: f5a7 09bf 074f 6d3d 6353 39be 7fbb 4a3e
000000d0: 611a 343e 43cf 593c 39ae 54be 7392 503e
000000e0: 9f2d a4be 8ded 36bf a3c1 6bbc ab64 a03d
000000f0: 63e0 a5bd dcb3 113e 8aa6 5bbe a6a0 813e
00000100: 7e8e 62c0 cc64 12c0 e144 cb3d 45d8 573e
00000110: e629 45be 596a 9f3c 9df7 fabc b44b af3c
00000120: c347 c83e bd8b c53f 7e1b e2bd da40 8a3d
00000130: 03f5 bebe df84 a03d 0048 98bd d589 ae3d
00000140: 8cc9 b33e 1583 4a3e d500 de3e b7f5 dc3e
00000150: 42e2 0fbe 9a7d e63b 9e77 273d a3a5 c43c
00000160: 4d11 70bf 75d2 75bf 14ca f53d 03dd ecbd
00000170: 948c ea3d 75a9 f33d ee0e f53c 6741 44bc
00000180: 63e3 a6be ca33 73be 0201 673e 76c1 97be
00000190: 60c8 6cbe 789a 4dbd 5c27 f43d d4aa b2bd
000001a0: 2d69 8bbe ee2e 7e3e ddd4 97be b7d4 40be
000001b0: 1894 b4bd 091b 89be 4241 eabd a7ea acbe
000001c0: 1daa 32be 173f ecbe baf1 623e e238 843e
000001d0: d94a d33d 91c9 f23b 47b9 f43e 6a68 e5be
000001e0: d8d0 a23c ba2c 58be 5a7d ae3d 05e1 6fbe
000001f0: 845e 463e a01a 66be 436a 7dbe e557 013e
00000200: 33fb b1bf 6077 1e3f 99b5 1c3d 450e d83d
00000210: 9154 1abe af88 2d3d 9253 84be 4d36 533e
00000220: 6d39 a0be d0d6 ecbc 60bd acbd 7097 81bd
00000230: c0d7 793d d720 02be a0af 98bc 2e09 7bbe
00000240: e797 c73e b95b 9f3f 3c96 153d 978d b0bd
00000250: de18 65be 9be1 953b 8531 82bd 9cb8 c03d
00000260: db10 a1be 7d73 8c3e 7002 62be 94d2 b6bd
00000270: 7c83 a2be 2a1c 4abe 729d 463e 4a99 083e
00000280: 4daa 52c0 698c 563f c9a8 673e 7ace 9b3e
00000290: d06b 45be 55a4 b63d f551 d0bd 7898 203e
000002a0: 04d9 95bd 0944 13bf 574c 743e 7e27 1ebc
000002b0: 4649 f7bc 9f5b 7bbd e3c8 2cbd 02a1 5c3d
000002c0: 1553 6a3e afde 41be 3836 c43e f4a1 473e
000002d0: 6c41 0cbe 313b 0dbe d691 df3e f65f c3be
000002e0: e50c 61bd 785e 09bf 183b 4fbe f33b 9b3d
000002f0: a1d2 9fbc eb12 243e 398b 28be bc95 443d
00000300: e1f9 3d3e 598f df3e a2d2 bbbe 29e0 813d
00000310: cafc 05be 450d 943d e231 f5bd 6038 363e
00000320: 1896 cbbd 4f56 383e eaa4 cc3e 8f3b a0bd
00000330: ed1a 303d 4007 d7bd 363d cc3a c271 b03e
00000340: eb7a 51bd 86c8 27be 8d8e e4be e00b 86be
00000350: e386 753d b92a 6d3e 45cd 53be 02b9 133e
00000360: 2cf9 873e 3389 3fbe f61b 1ebe 1048 1e3e
00000370: 9f3e c5be 6022 063e fe02 933e d42b 6ebe
00000380: 336c 04be 8093 bdbb 4dc0 823e b083 eabd
00000390: c020 28be 3ec6 87be 9fbf 953e a014 f7bd
000003a0: 49fe 26be d9af 95bf 19bf b13d 5e8b 1dbe
000003b0: 71c0 9e3d 4c48 b5bd b940 11be 358e ab3d
000003c0: 6aa7 723e 9fe9 ac3e fcba aebe d4e8 cdbd
000003d0: 5808 1dbe e355 a8be 0688 6e3e f592 90be
000003e0: 83c7 d9be 4203 2aba 716c 20be cae5 613e
000003f0: 1a00 763e d17a 573e 99cb babe 48ae e03e

common_layer.0.bias f4 [128]
0.42691016 -0.56935817 0.29908463 0.09106451 0.32309324 -0.2744244 -0.11955678 0.28396037
0.07850892 0.07437226 -0.6447103 0.05987262 -0.3192133 -0.3470424 0.23413981 0.27341115
0.3212991 -0.0056165457 -0.17875005 0.08851248 0.3002241 0.6106316 0.8924925 0.62133515
0.29665044 0.41496873 0.050764754 -0.29411063 0.10982865 0.6783022 0.2747003 -0.28370392
-0.24088627 0.83650285 0.19285594 -0.99464 -0.2928195 -0.19700676 -0.20154235 0.24176285
-0.24915569 0.26964915 -0.5329822 -0.43744135 -0.34964597 0.25093266 0.039617892 -0.392013
-0.13047978 -0.2981047 -0.48811477 0.2561603 0.3932945 0.5438283 0.18010858 -0.22235236
0.2632916 -0.2621953 0.38895518 0.3499635 -0.22233756 0.40652224 0.15463425 -0.14873448
-0.028354803 0.31122378 0.29585004 0.26029274 0.06708798 -0.1693093 0.6419203 0.060696274
0.31660533 0.16381016 0.0013906062 -0.51495576 0.34513494 0.6380839 0.11745208 -0.5749543
-0.025580486 -0.20285794 -0.32345408 -0.18087535 0.041971825 -0.24275585 -0.22014242 0.07165077
0.34663388 0.08090109 -0.2378316 -0.51770604 0.5478547 0.4773754 -0.5818235 -0.14022778
0.4814652 0.18157184 0.47588062 -0.17694756 0.89972675 0.25590116 -0.35829982 0.5706683
0.41646487 0.15494335 -0.10136466 0.61536795 0.3537262 0.34708175 0.39529157 0.32542348
0.7341032 0.21122769 -0.0770146 0.03103441 0.43952483 0.06827825 0.60971856 0.047433387
1.0239071 0.2751399 0.3519024 -1.6036493 0.34000522 0.31233105 -0.02622363 0.4272566
00000000: f893 da3e 75c1 11bf 9f21 993e 0880 ba3d
00000010: 7a6c a53e 5b81 8cbe 2fda f4bd 4163 913e
00000020: 49c9 a03d 7c50 983d bc0b 25bf fe3c 753d
00000030: ed6f a3be 8baf b1be 59c2 6f3e 8cfc 8b3e
00000040: 5181 a43e 000b b8bb 410a 37be 0846 b53d
00000050: f9b6 993e 5a52 1c3f 637a 643f d20f 1f3f
00000060: 91e2 973e c876 d43e b4ee 4f3d ab95 96be
00000070: d8ed e03d 37a5 2d3f 85a5 8c3e a441 91be
00000080: e4aa 76be 0d25 563f 077c 453e baa0 7ebf
00000090: 70ec 95be 24bc 49be 1e61 4ebe ae90 773e
000000a0: ab22 7fbe 740f 8a3e 8571 08bf 50f8 dfbe
000000b0: cc04 b3be 3f7a 803e 5f46 223d eeb5 c8be
000000c0: 7e9c 05be 2ea1 98be 2eea f9be 7127 833e
000000d0: e65d c93e 5538 0b3f 626e 383e 56b0 63be
000000e0: 28ce 863e 763e 86be 2225 c73e 6a2e b33e
000000f0: 75ac 63be af23 d03e 7158 1e3e da4d 18be
00000100: 5548 e8bc b958 9f3e a879 973e 1745 853e
00000110: 6c65 893d 6b5f 2dbe e454 243f a89c 783d
00000120: 181a a23e dabd 273e 0045 b63a 24d4 03bf
00000130: 87b5 b03e 7759 233f b78a f03d 3430 13bf
00000140: 2b8e d1bc feb9 4fbe c69b a5be 6337 39be
00000150: a6ea 2b3d fd94 78be 046d 61be a4bd 923d
00000160: ff79 b13e 78af a53d 208a 73be 6288 04bf
00000170: 3540 0c3f 8c6a f43e 63f2 14bf df97 0fbe
00000180: 9b82 f63e f8ed 393e a0a6 f33e be31 35be
00000190: 7e54 663f 7a05 833e 1373 b7be 5117 123f
000001a0: e23a d53e 78a9 1e3e 4698 cfbd c188 1d3f
000001b0: 9a1b b53e b3b4 b13e a863 ca3e e89d a63e
000001c0: 30ee 3b3f 124c 583e d5b9 9dbd e03b fe3c
000001d0: 6609 e13e 78d5 8b3d 8416 1c3f 8349 423d
000001e0: 630f 833f 23df 8c3e 8d2c b43e 6144 cdbf
000001f0: 2a15 ae3e dbe9 9f3e f0d2 d6bc 61c1 da3e

common_layer.2.weight f4 [128, 128]
-0.09993338 -0.035640884 0.12544498 -0.030273132 -0.019870397 0.026779272 -0.020512404 0.10621415
-0.13457409 -0.46252885 -0.16872938 -0.0013558071 -0.053441066 0.02920077 -0.018827472 0.19525826
-0.17972572 -0.079984054 -1.8389354 0.0657339 -0.15581682 0.22256483 -0.67226243 -0.028027372
-0.24697758 0.1142795 0.0039966693 0.066992 -0.085352086 0.3748476 0.018593475 -0.10419858
0.052489765 -0.11412145 -0.18305899 -0.36009866 -0.034043074 -0.09904897 -0.12852798 0.08327504
-0.063439965 -1.3004481 -0.023320084 -0.05461849 -0.31397468 -0.08336073 -0.005910997 -0.038043074
-0.07060882 0.02704928 0.0138534 -0.29244927 -0.3132479 0.097414754 0.12694363 0.08303582
-0.10811055 0.0039898083 -0.073354945 -0.30162844 0.06046226 0.08483737 0.00028711182 0.06983972
-0.08284972 -0.06403786 -0.19242011 0.042951964 0.065643355 -0.12122632 0.25501713 -0.034909833
0.04649795 0.1608163 0.00040751696 0.060146295 -0.06665324 -0.13812768 0.11691874 6.3218096e-05
0.054046854 0.079588726 -0.01927232 -0.35418633 0.26852766 -0.10667814 0.0016085908 0.011142984
-0.14412875 0.056451466 -0.07968132 0.17208682 0.039437275 0.067647226 -0.28050557 -0.10317214
0.121808775 -0.034817796 -0.22989905 -0.2956644 0.27363685 0.09399725 -0.09063716 0.15382352
0.031658053 -0.19118093 0.33039755 -0.3973269 -0.29985353 0.022991987 0.11122169 -0.063032545
-0.3727234 0.07954459 -0.15879327 0.039120622 0.16722693 0.060733277 0.0062548425 -0.07663921
0.2795116 -0.24689673 -0.016829558 -0.013801392 0.045114327 0.07265007 0.08000622 0.00749766
-0.046221703 -0.040928084 0.042317078 0.03660652 -0.023620306 0.08546021 -0.06833864 -0.049426574
-0.061539464 0.034939684 0.005518093 -0.052540727 -0.044179253 -0.030744366 -0.031089796 0.04751535
-0.04278437 0.00815478 0.014651224 0.048600636 0.013591564 0.040279165 -0.07959737 -0.04489667
-0.023114188 0.0451511 -0.063099936 0.0003713593 -0.010900438 -0.082856804 -0.054368 -0.063183464
0.010233857 0.0020608536 0.06567011 -0.022805642 -0.075446524 0.028449103 -0.01384741 0.007597372
0.021730512 -0.04347062 -0.04875012 0.013236545 -0.04772214 0.025677934 -0.053189974 0.033627525
-0.086803794 -0.018393204 -0.016956188 0.014922719 -0.023386037 0.0547483 0.043793816 0.086302824
-0.0074536595 0.073085286 -0.030635914 -0.022059614 0.031095251 -0.016230926 0.026225239 -0.08353254
-0.0075483173 -0.05598822 -0.057982408 0.08807535 0.04203274 -0.071115136 0.039400157 0.08526685
0.007952544 -0.07755996 0.055832095 -0.051239125 0.056278177 -0.08619394 -0.046092078 0.073981114
-0.011205085 -0.051757567 0.03754762 0.054328334 -0.0038129343 0.08475918 -0.08406777 -0.08223093
-0.031885464 -0.057721984 -0.021160044 0.017584097 0.030584836 0.08737308 -0.01728505 -0.042275578
0.019275317 0.028408922 0.021329248 -0.03700934 0.0066666007 -0.032150395 -0.007128626 -0.013864721
0.01227746 0.03703042 -0.08679926 0.0492738 0.04093295 0.059927337 0.02527317 -0.0069263997
-0.08190571 0.0011905691 -0.0053437995 0.03662651 -0.029314352 -0.07483298 0.075175434 0.03243394
-0.06096297 -0.019933276 0.029201783 0.025121927 0.035359267 0.040386565 0.025805011 -0.0063120574
00000000: dfa9 ccbd 2dfc 11bd a674 003e 5cff f7bc
00000010: 3ec7 a2bc 3460 db3c a109 a8bc ce86 d93d
00000020: cacd 09be 95d0 ecbe 65c7 2cbe 56b5 b1ba
00000030: 05e5 5abd 7436 ef3c 123c 9abc c8f1 473e
00000040: 050a 38be aece a3bd 3c62 ebbf 7f9f 863d
00000050: 728e 1fbe 09e8 633e 6419 2cbf a999 e5bc
00000060: b1e7 7cbe 5f0b ea3d 7ef6 823b 1a33 893d
00000070: 13cd aebd 06ec bf3e 5851 983c 1166 d5bd
00000080: 82ff 563d 82b8 e9bd d173 3bbe da5e b8be
00000090: c070 0bbd 30da cabd d79c 03be 1b8c aa3d
000000a0: d0ec 81bd 1575 a6bf c309 bfbc a3b7 5fbd
000000b0: 4ac1 a0be 08b9 aabd 09b1 c1bb 0ed3 1bbd
000000c0: 5b9b 90bd 7496 dd3c 5ff9 623c e9bb 95be
000000d0: 0762 a0be 6381 c73d 83fd 013e af0e aa3d
000000e0: 1069 ddbd f0bc 823b 1e3b 96bd 0b6f 9abe
000000f0: 46a7 773d 37bf ad3d 7f87 9639 2108 8f3d
00000100: 1dad a9bd 4826 83bd c709 45be 66ee 2f3d
00000110: 0670 863d 8145 f8bd 9b91 823e 9dfd 0ebd
00000120: a274 3e3d 07ad 243e 00a8 d539 f65b 763d
00000130: 7e81 88bd 5871 0dbe 1873 ef3d f593 8438
00000140: 3c60 5d3d 6aff a23d fce0 9dbc e957 b5be
00000150: 757c 893e 127a dabd 5ad7 d23a 1091 363c
00000160: 7d96 13be a739 673d f62f a3bd 8737 303e
00000170: fb88 213d a18a 8a3d 6d9e 8fbe ea4b d3bd
00000180: e176 f93d 1b9d 0ebd a86a 6bbe 5361 97be
00000190: 211a 8c3e a181 c03d fa9f b9bd ea83 1d3e
000001a0: e0ab 013d efc4 43be de29 a93e 6e6e cbbe
000001b0: 6786 99be b159 bc3c 33c8 e33d 3517 81bd
000001c0: 9ad5 bebe 46e8 a23d b49a 22be f23c 203d
000001d0: 893d 2b3e 75c3 783d 6cf5 cc3b 05f5 9cbd
000001e0: 251c 8f3e 7fd2 7cbe 24de 89bc 3c1f 62bc
000001f0: cdc9 383d 8fc9 943d 4dda a33d eeae f53b
00000200: f852 3dbd 35a4 27bd ac54 2d3d b8f0 153d
00000210: 5f7f c1bc c305 af3d 21f5 8bbd 8573 4abd
00000220: ce10 7cbd ea1c 0f3d 1ed1 b43b f234 57bd
00000230: 4ef5 34bd 9cdb fbbc 07b0 febc 759f 423d
00000240: aa3e 2fbd a09b 053c b00b 703c 7611 473d
00000250: 27af 5e3c c4fb 243d f203 a3bd 92e5 37bd
00000260: f759 bdbc 5cf0 383d 8a3a 81bd 00b3 c239
00000270: c097 32bc d4b0 a9bd fbb0 5ebd 5566 81bd
00000280: e8ab 273c 630f 073b 0d7e 863d e6d2 babc
00000290: b583 9abd 180e e93c 3fe0 62bc 60f3 f83b
000002a0: 3004 b23c 400e 32bd 35ae 47bd 18de 583c
000002b0: 4a78 43bd 885a d23c bbdd 59bd 04bd 093d
000002c0: 30c6 b1bd 58ad 96bc b4e7 8abc 6c7e 743c
000002d0: 1394 bfbc c13f 603d 2561 333d 89bf b03d
000002e0: d43d f4bb bdad 953d 2bf8 fabc 5db6 b4bc
000002f0: 78bb fe3c b8f6 84bc 50d6 d63c 1c13 abbd
00000300: e057 f7bb e753 65bd f67e 6dbd d960 b43d
00000310: 862a 2c3d d0a4 91bd 0f62 213d 63a0 ae3d
00000320: 634b 023c c2d7 9ebd 32b0 643d 1ee0 51bd
00000330: f283 663d 7386 b0bd 0ccb 3cbd 6983 973d
00000340: 8895 37bc beff 53bd 88cb 193d 6387 5e3d
00000350: 6ce2 79bb 3996 ad3d b92b acbd b168 a8bd
00000360: 559a 02bd e36d 6cbd d457 adbc 860c 903c
00000370: 0d8d fa3c a8f0 b23d 6199 8dbc 2829 2dbd
00000380: 45e7 9d3c d4b9 e83c adba ae3c 1b97 17bd
00000390: 8073 da3b 22b0 03bd 4097 e9bb db28 63bc
000003a0: 6627 493c 36ad 173d cfc3 b1bd 53d3 493d
000003b0: 4fa9 273d 5e76 753d ae09 cf3c daf6 e2bb
000003c0: 2ebe a7bd df0c 9c3a 0a1b afbb ae05 163d
000003d0: a724 f0bc 0942 99bd 94f5 993d 73d9 043d
000003e0: 4fb4 79bd 1c4b a3bc 9438 ef3c 80cc cd3c
000003f0: e1d4 103d 626c 253d 0865 d33c 60d5 cebb

common_layer.2.bias f4 [128]
0.07948543 -0.07331777 0.091602504 -0.044709466 -0.05025841 -0.054042794 -0.00848966 -0.0766649
-0.079134285 0.01654631 -0.16613163 0.06268581 -0.015334774 -0.062725 -0.2661165 -0.026408022
-0.118092775 0.022805635 -0.14693452 -0.095561855 0.07893752 0.019542001 0.087963894 0.099819
0.04264321 -0.0059423586 -0.1349957 -0.062454626 -0.2394225 -0.24107717 -0.030598123 -0.056196287
0.016818268 -0.16741268 -0.6822818 -0.061524138 -0.024778182 0.021286642 0.00054175634 -0.040116843
-0.5966797 0.16947462 -0.111062266 0.03048868 -0.103950135 -0.1290161 -0.06853776 0.030077657
0.027069338 -0.101091765 -0.004032247 -0.08064879 0.05729911 -0.040178206 0.022592459 -0.118328616
-0.13659577 -0.002171362 -0.04989965 -0.007122299 0.045264214 -0.19906391 -0.052821703 0.016212123
-0.058792632 -0.102929294 -0.11069867 -0.14018099 0.08035964 -0.15705523 -0.020668646 -0.19558026
0.5899529 -0.028063191 0.0071142055 0.07075313 0.025022978 -0.085345685 -0.004322183 0.0064621815
-0.021877408 0.22483361 -0.09318132 0.002981343 0.002713711 0.06948913 -0.14451656 -0.087001875
-0.24322629 0.09780559 -0.10913829 -0.107521914 -0.14614047 -0.05416573 -0.21863362 0.020003404
-0.15991242 -0.046471316 0.03767824 -0.051213123 0.13824257 -0.032731615 0.08630719 0.026012002
0.06767169 0.019174276 -0.02926646 -0.14500098 -0.077188544 0.064256325 0.0058918446 0.03789998
0.03126611 0.019073365 -0.2085296 -0.11130073 0.0487263 -0.06207771 -0.1287287 -0.024804723
-0.008894669 -0.06244374 0.019392444 -0.056217525 0.054292683 0.16029799 0.024322076 -0.053815875
00000000: 42c9 a23d a127 96bd 189a bb3d 4621 37bd
00000010: c3db 4dbd fa5b 5dbd 3718 0bbc 7d02 9dbd
00000020: 2811 a2bd 218c 873c 691e 2abe 6b61 803d
00000030: b43e 7bbc f775 80bd 6c40 88be a355 d8bc
00000040: a0da f1bd e2d2 ba3c 0176 16be efb5 c3bd
00000050: ffa9 a13d 8c16 a03c 6a26 b43d e76d cc3d
00000060: a6aa 2e3d 1eb8 c2bb 503c 0abe 6cd0 7fbd
00000070: 2c2b 75be efdc 76be eaa8 fabc 142e 66bd
00000080: 77c6 893c 3b6e 2bbe 05aa 2ebf bc00 7cbd
00000090: 9dfb cabc 5361 ae3c a704 0e3a 8f51 24bd
000000a0: 00c0 18bf c18a 2d3e 9d74 e3bd 65c3 f93c
000000b0: cfe3 d4bd cc1c 04be 865d 8cbd 6b65 f63c
000000c0: 84c0 dd3c 3309 cfbd f020 84bb 312b a5bd
000000d0: 79b2 6a3d e791 24bd d213 b93c 4656 f2bd
000000e0: c3df 0bbe 694d 0ebb 9363 4cbd 2d62 e9bb
000000f0: f866 393d 69d7 4bbe 925b 58bd 49cf 843c
00000100: 8bd0 70bd 98cc d2bd fcb5 e2bd 9b8b 0fbe
00000110: 9893 a43d 16d3 20be 4b51 a9bc 3146 48be
00000120: 2707 173f c7e4 e5bc 481e e93b 04e7 903d
00000130: fdfc cc3c b8c9 aebd 19a1 8dbb b5c0 d33b
00000140: 4038 b3bc c83a 663e d9d5 bebd a362 433b
00000150: 84d8 313b 5150 8e3d 26fc 13be 0a2e b2bd
00000160: 5010 79be 4c4e c83d e583 dfbd 7334 dcbd
00000170: d9a5 15be e2dc 5dbd 7ee1 5fbe 2ede a33c
00000180: 15c0 23be b558 3ebd 8054 1a3d dac4 51bd
00000190: 768f 0d3e 9611 06bd d3c1 b03d 1f17 d53c
000001a0: 7497 8a3d 5f13 9d3c 37c0 efbc 237b 14be
000001b0: 0715 9ebd d298 833d 6010 c13b 023d 1b3d
000001c0: e410 003d bf3f 9c3c c988 55be a3f1 e3bd
000001d0: 3b95 473d 3245 7ebd 75d1 03be 4633 cbbc
000001e0: f2ba 11bc 02c5 7fbd e7dc 9e3c 5944 66bd
000001f0: 0162 5e3d 2825 243e 173f c73c 096e 5cbd

critic_layer.0.weight f4 [1, 128]
0.027872162 0.05413438 -0.09269519 -0.00053792814 -0.0014940704 0.0008747091 -0.06813345 0.041005485
-0.0005650493 -0.0010521519 0.032666143 -0.017665405 -0.056579225 0.016903521 0.015509898 0.008590187
-0.045478083 0.013761217 -0.14960228 -0.061503697 -0.0019631325 -0.0070296293 0.019208461 -0.1053121
0.00037220182 0.041923635 -0.03910186 -0.055352256 0.09441457 0.009442071 -0.05427367 0.06589901
-0.010186727 0.034295514 -0.108787686 0.047112644 3.5052326e-05 0.0338444 0.005627365 0.03194006
0.02428329 0.0038784074 0.028193202 0.01458 -0.016434908 -0.0069317087 -0.028948931 0.038755335
-0.057494037 0.11229479 -0.07187681 -0.02646068 0.004155455 -0.038941395 -0.009807814 -0.06413636
0.005290722 0.059555855 0.0025684915 -0.013041533 -0.006905289 0.059708543 -0.015610309 -0.005455405
0.028616056 0.025924662 0.11692788 0.04553236 -0.018047396 0.0054055005 -0.061567027 0.005340047
-0.04084898 -0.02140009 -0.047664642 -0.0014476987 -0.023347301 0.04409797 0.03603947 -0.10602718
-0.001504209 0.02954788 0.055189982 -0.008966236 -0.020348066 -0.002331044 -0.086088076 0.048772655
0.12710215 -0.04889772 0.051464204 0.04987004 0.019552972 0.04065638 -0.056418538 -0.19328862
-0.002832967 -0.005262294 -0.0021691357 0.004136468 -0.17532592 -0.07770179 0.047334176 -0.04064888
-0.108528666 0.012845354 -0.034099594 -0.17608643 -0.021282177 -0.012793984 0.03162049 -0.0004794939
0.010327047 -0.021754099 -0.121541016 -0.048724797 -0.03869595 -0.025045691 -0.027810516 0.022476185
-0.03903859 0.0061422926 0.0338724 -0.0762079 0.034664337 -0.032110725 0.0061533623 -0.027884837
00000000: 2954 e43c 03bc 5d3d fad6 bdbd bf03 0dba
00000010: afd4 c3ba bc4c 653a 8d89 8bbd 5ef5 273d
00000020: d11f 14ba 5ce8 89ba efcc 053d 0ab7 90bc
00000030: 9ebf 67bd 4179 8a3c 3a1d 7e3c dbbd 0c3c
00000040: 3a47 3abd ba76 613c 5731 19be 4deb 7bbd
00000050: e6a7 00bb ce58 e6bb 105b 9d3c dfad d7bd
00000060: 1524 c339 1eb8 2b3d 4629 20bd 0cb9 62bd
00000070: 6d5c c13d ebb2 1a3c 114e 5ebd 0ff6 863d
00000080: 3be6 26bc 7479 0c3d 14cc debd 30f9 403d
00000090: 2605 1338 6da0 0a3d c265 b83b 95d3 023d
000000a0: c0ed c63c e12c 7e3b 6ef5 e63c f4e0 6e3c
000000b0: 80a2 86bc 6323 e3bb 4f26 edbc eabd 1e3d
000000c0: de7e 6bbd d0fa e53d 2634 93bd 11c4 d8bc
000000d0: 7c2a 883b 0381 1fbd f4b0 20bc ed59 83bd
000000e0: cb5d ad3b d7f0 733d 2354 283b 27ac 55bc
000000f0: c345 e2bb f290 743d 62c2 7fbc 41c3 b2bb
00000100: 386c ea3c f55f d43c e277 ef3d 2480 3a3d
00000110: 22d8 93bc a020 b13b b52d 7cbd 90fb ae3b
00000120: 4351 27bd 3e4f afbc 003c 43bd b5c0 bdba
00000130: d742 bfbc 13a0 343d 209e 133d c724 d9bd
00000140: e128 c5ba 650e f23c e40e 623d 1fe7 12bc
00000150: fdb0 a6bc 6ec4 18bb f24e b0bd d6c5 473d
00000160: 1127 023e fa48 48bd 21cc 523d 8744 4c3d
00000170: 8e2d a03c 4e87 263d 2017 67bd 74ed 45be
00000180: 4da9 39bb 526f acbb 0f28 0ebb 358b 873b
00000190: a388 33be 1e22 9fbd 7be1 413d 717f 26bd
000001a0: 4744 debd 5275 523c 04ac 0bbd 0050 34be
000001b0: f657 aebc dc9d 51bc 7d84 013d 9564 fbb9
000001c0: c632 293c a735 b2bc 7fea f8bd a793 47bd
000001d0: a57f 1ebd 9f2c cdbc e1d2 e3bc fa1f b83c
000001e0: eee6 1fbd 4945 c93b c9bd 0a3d e312 9cbd
000001f0: 31fc 0d3d 8986 03bd 25a2 c93b be6e e4bc

actor_layer.0.weight f4 [2, 128]
-0.021482248 0.036034163 -0.022355203 0.00722996 0.047993183 0.0075209583 0.016980058 -0.06869938
0.0065529193 0.020461945 -0.029510383 0.0037639833 0.04827063 0.012492674 -0.031078678 -0.047662836
-0.03227328 0.013387278 0.046855386 0.06516959 0.0060178875 0.019138332 -0.016942829 0.10110862
0.011534558 -0.022212822 0.003984974 0.07338237 -0.028687973 0.002931699 0.058187805 -0.06500198
-0.012477142 -0.049580365 0.11290754 0.038336344 0.0024351305 0.05081037 -0.053828824 0.035750568
0.0010693969 0.012402091 0.021311019 -0.015925728 0.059781663 0.01332298 0.028854547 -0.03908464
0.092998594 -0.08488523 -0.037332937 0.03222929 -0.0057888296 0.013402334 0.05940518 -0.032604203
-0.00027803998 0.0027810251 0.018263176 0.06302043 -0.0063351407 0.048922684 0.033483107 0.025631364
-0.015537549 -0.017207598 0.074753635 -0.037117764 -0.037786037 0.022866819 -0.041733842 0.0045993314
0.031469688 0.023287077 -0.07125338 -0.06260651 -0.020682191 -0.063958995 0.07693103 0.19094282
0.032890156 -0.120130986 -0.07129252 0.0041443785 0.052755732 -0.008750197 0.06351481 -0.035532314
-0.08712926 0.048267137 0.033284526 -0.038996626 -0.0030442365 0.041092947 0.031901166 -0.020703962
0.011463042 0.0027638243 -0.0032511223 -0.0040877145 0.018608276 0.022079304 0.035082683 -0.0015538653
0.13006498 -0.01872717 0.0031222592 0.17424314 0.018182509 -0.007913737 -0.029171329 -0.02472505
0.0016138839 -0.018356085 0.11805122 0.016799109 0.0018432345 -0.0132020395 0.03209477 -0.046282098
0.045596447 -0.00602799 -0.07999902 0.06708553 0.018531645 0.056193564 -0.0034228736 0.045219783
-0.03844887 0.02517379 -0.0749355 -0.0047912668 0.016019186 -0.0051307864 -0.01743981 -0.07520267
0.0035209018 -0.0109356465 0.017437477 0.013311305 0.016887058 -0.05850961 -0.021502856 -0.014563025
-0.020540284 0.041370917 0.10972946 0.08364111 0.0053765858 0.044907086 -0.029269388 0.12339094
0.052464273 0.012275439 -0.009477232 -0.027592897 -0.024489895 -0.02169598 0.05166793 -0.0014064511
-0.06603864 -0.005370327 0.09610241 0.049808707 0.011187812 -0.02383003 -0.00072607334 -0.005579413
0.0028137078 0.013249293 0.021052366 -0.017180985 -0.063797764 -0.0005506987 0.023804817 -0.029245911
0.022450875 -0.08478663 0.08396356 0.04077414 -0.014443265 -0.014486651 -0.016895942 0.055057555
-0.012030511 0.0121587515 0.030859668 0.07440703 -0.004323582 0.052739907 0.0009949543 0.009405468
0.023541052 -0.024408042 0.09222917 -0.044994656 -0.026656598 -0.026244525 0.024081234 0.003428441
-0.008642995 0.037880536 -0.019879954 -0.05242728 -0.07211977 -0.06361125 -0.12303933 0.14530042
0.0052726516 0.0047211326 -0.06227181 0.0041150376 0.055578217 0.03802012 0.07539713 -0.04063594
-0.08950042 0.046975173 0.0115939025 -0.034461685 -0.023653 -0.056312025 0.078771375 -0.035277545
-0.0043788287 0.005169195 -0.0028268609 -0.0058383113 0.02107838 0.05859586 0.13730182 0.06607798
0.053932585 -0.018115407 0.02003679 0.16874057 0.057315983 0.0035522229 0.036967583 -0.0022679276
-0.019716207 -0.014309557 0.1291928 0.045489985 0.02311054 0.03349499 0.0045881793 -0.037845086
0.04676117 0.0011798457 -0.013307148 0.0808737 -0.06830045 0.039165124 -0.0023169252 0.027191702
00000000: 8afb afbc 8f98 133d 4222 b7bc 4de9 ec3b
00000010: 8094 443d 5f72 f63b c319 8b3c 43b2 8cbd
00000020: dfb9 d63b cf9f a73c c2bf f1bc 29ad 763b
00000030: 6db7 453d 13ae 4c3c b698 febc 1b3a 43bd
00000040: fd30 04bd 5056 5b3c 6feb 3f3d a277 853d
00000050: b331 c53b fec7 9c3c b0cb 8abc 0912 cf3d
00000060: 71fb 3c3c aaf7 b5bc 6394 823b 7f49 963d
00000070: 0a03 ebbc bf21 403b 5656 6e3d c21f 85bd
00000080: ed6c 4cbc c814 4bbd 113c e73d 9206 1d3d
00000090: b696 1f3b 891e 503d 9d7b 5cbd 306f 123d
000000a0: 012b 8c3a 2432 4b3c 7294 ae3c ac76 82bc
000000b0: 9edd 743d a148 5a3c 5f60 ec3c 3717 20bd
000000c0: 0c76 be3d 4fd8 adbd 6cea 18bd dc02 043d
000000d0: 39b0 bdbb 7795 5b3c d952 733d fc8b 05bd
000000e0: e5c5 91b9 dc41 363b a89c 953c db10 813d
000000f0: 0397 cfbb 2763 483d 9525 093d def8 d13c
00000100: 3491 7ebc f3f6 8cbc 6f18 993d cc08 18bd
00000110: 88c5 1abd 3253 bb3c 1bf1 2abd fdb5 963b
00000120: 5ce6 003d 8ac4 be3c 4bed 91bd d837 80bd
00000130: b36d a9bc effc 82bd 048e 9d3d 8486 433e
00000140: d4b7 063d 3c07 f6bd d001 92bd 91cd 873b
00000150: 6516 583d fc5c 0fbc 0d14 823d 558a 11bd
00000160: d370 b2bd c3b3 453d 5b55 083d edba 1fbd
00000170: d081 47bb 1451 283d ccaa 023d 5b9b a9bc
00000180: 7ccf 3b3c 4721 353b c810 55bb 3cf2 85bb
00000190: 6270 983c a8df b43c dcb2 0f3d 11ab cbba
000001a0: c12f 053e b969 99bc d19e 4c3b cb6c 323e
000001b0: 7cf3 943c 9ea8 01bc b6f8 eebc 308c cabc
000001c0: f588 d33a 805f 96bc d7c4 f13d 499e 893c
000001d0: b098 f13a 5e4d 58bc ce75 033d 4c92 3dbd
000001e0: 57c3 3a3d 7286 c5bb 87d6 a3bd 2364 893d
000001f0: adcf 973c 392b 663d 4a52 60bb 6138 393d
00000200: 907c 1dbd 4439 ce3c c977 99bd 0f00 9dbb
00000210: ab3a 833c 2820 a8bb efdd 8ebc dc03 9abd
00000220: eebe 663b 6d2b 33bc 0ad9 8e3c a917 5a3c
00000230: ba56 8a3c c6a7 6fbd c226 b0bc c199 6ebc
00000240: 1944 a8bc 8d74 293d d7b9 e03d 084c ab3d
00000250: 122e b03b 7ef0 373d 5bc6 efbc 64b4 fc3d
00000260: c7e4 563d ec1e 493c 6446 1bbc 800a e2bc
00000270: 089f c8bc c5bb b1bc c0a1 533d ab58 b8ba
00000280: 443f 87bd 91f9 afbb 57d1 c43d 3704 4c3d
00000290: 164d 373c 3237 c3bc f555 3eba 82d3 b6bb
000002a0: 2f66 383b 9013 593c 0376 ac3c 23bf 8cbc
000002b0: 67a8 82bd c45c 10ba 5202 c33c 1f95 efbc
000002c0: e6ea b73c 9da4 adbd 16f5 ab3d c902 273d
000002d0: 72a3 6cbc 6b59 6dbc 5c69 8abc 0884 613d
000002e0: 9f1b 45bc 8035 473c 6acd fc3c b762 983d
000002f0: d6ac 8dbb cd05 583d 2069 823a 6419 1a3c
00000300: 2ad9 c03c 60f3 c7bc a6e2 bc3d 514c 38bd
00000310: f05e dabc c2fe d6bc 0246 c53c b2af 603b
00000320: 599b 0dbc 9f28 1b3d 49db a2bc fdbd 56bd
00000330: 88b3 93bd 9d46 82bd 0bfc fbbd a2c9 143e
00000340: 35c6 ac3b bbb3 9a3b ba10 7fbd 70d7 863b
00000350: fca5 633d fcba 1b3d cf69 9a3d df71 26bd
00000360: ff4b b7bd 0a69 403d 5af4 3d3c b227 0dbd
00000370: f0c3 c1bc 70a7 66bd e352 a13d 307f 10bd
00000380: 477c 8fbb 5a62 a93b db42 39bb 4e4f bfbb
00000390: 91ac ac3c 3602 703d d998 0c3e e453 873d
000003a0: 6ae8 5c3d c366 94bc 3224 a43c 54ca 2c3e
000003b0: 2ac4 6a3d 69cc 683b 526b 173d 83a1 14bb
000003c0: e283 a1bc a272 6abc 1e4b 043e b553 3a3d
000003d0: 5152 bd3c 0b32 093d 7058 963b 7303 1bbd
000003e0: a488 3f3d 0da5 9a3a 3906 5abc 1ca1 a53d
000003f0: 1be1 8bbd 9c6b 203d 8ed7 17bb 22c1 de3c

actor_layer.0.bias f4 [2]
-0.011356925 0.066734165
00000000: 6512 3abc ecab 883d
