DQN/flappy_bird/trained_models/Every_100_Episode_Double_Dueling_DQN_Flappy_bird.pth (torch, 76268 bytes, 7 tensors)

common_layer.0.weight f4 [128, 8]
0.035035167 -1.2776097 0.21543404 -0.07897848 0.43065417 -0.0685174 -0.20749332 0.49238738
-0.3092161 -0.3021212 -0.06896226 0.17112999 0.16239646 -0.075491644 0.037970208 -0.032160785
-0.19508937 -0.3062363 0.3515109 0.16339456 0.14837866 -0.09324836 0.23633403 -0.24310964
0.19760647 0.13688466 0.074857324 0.06801358 -0.24141727 -0.1183459 0.18596652 -0.25014243
0.21725747 0.1736096 -0.16709186 -0.12709035 0.07932208 -0.21138653 0.018608047 0.06905123
0.027864547 0.1523391 0.1343769 0.024304133 0.16367036 -0.15317748 -0.15284814 -0.2705718
-0.5325797 0.10789873 -0.14543349 0.20801409 0.17164409 0.020731542 -0.20333269 0.19586056
-0.26874036 -0.7281116 0.008674473 0.12876733 -0.059613936 0.14328806 -0.18727773 0.26742527
-3.5931401 -2.260537 0.08740434 0.20875236 -0.20172793 0.0046013896 -0.018307311 0.015073352
0.3965284 1.5296134 -0.10259727 0.09662743 -0.36799362 0.061951313 -0.06220784 0.08071963
0.35798368 0.19241388 0.47191194 0.450926 -0.13953276 0.01763146 0.040111184 0.014893414
-0.89728457 -1.001196 0.15549561 -0.09352269 0.12574226 0.13288206 -0.0041064187 -0.030125747
-0.32595357 -0.23750225 0.22558978 -0.29639786 -0.23123312 -0.05019614 0.1192157 -0.08723989
-0.2722868 0.2482259 -0.2965459 -0.18831144 -0.08817309 -0.2677844 -0.11438228 -0.33772776
-0.1772968 -0.505588 0.20753935 0.27185747 0.09964644 -0.007656216 0.48627213 -0.453498
0.019874975 -0.21110812 0.08520003 -0.23425682 0.19371992 -0.22471094 -0.24747567 0.12631185
-1.4775988 0.6073629 0.029088933 0.10801675 -0.15220246 0.035811458 -0.24530858 0.20813511
-0.31293812 -0.028911024 -0.08434558 -0.063277125 0.06099677 -0.1270784 -0.018638432 -0.2451522
0.3784718 1.1559756 0.01634235 -0.054094534 -0.20524795 -0.009965747 -0.06168497 0.09724303
-0.31458172 0.2743186 -0.22071242 -0.08926883 -0.3174094 -0.19737306 0.19395998 0.13339725
-3.3544009 0.83635294 0.21657863 0.30581763 -0.18755692 0.09261784 -0.103119105 0.15804498
-0.04704259 -0.6048437 0.24010777 0.03369117 -0.032282654 -0.08223263 -0.037886534 0.038959593
0.22376664 -0.23339616 0.37033302 0.22444665 -0.13997875 -0.16100863 0.4419574 -0.39540794
-0.03970126 -0.5793334 -0.19968106 0.08871859 -0.016415782 0.15894441 -0.15595943 0.05044051
0.21645747 0.42481595 -0.35228434 0.07861035 -0.09743995 0.1065971 -0.09665192 0.20666748
-0.07096046 0.13729274 0.44694272 -0.04660092 0.064097166 -0.097744696 0.01941737 0.35552037
-0.0277151 -0.17759489 -0.39806888 -0.25026727 0.070693396 0.23132375 -0.18298623 0.13874921
0.275851 -0.18308543 -0.16715422 0.18502337 -0.37711093 0.11948585 0.30406985 -0.22614083
-0.129319 -0.0057854056 0.2553734 -0.11450899 -0.16418743 -0.26518434 0.29247758 -0.12064481
-0.16841185 -1.1623439 0.07904678 -0.16145292 0.070597105 -0.09456374 -0.14395924 0.07844544
0.23696676 0.3377199 -0.34127033 -0.10054174 -0.15335214 -0.32878026 0.23294076 -0.2823712
-0.38058722 0.012886282 -0.23367842 0.18283032 0.27378455 0.25702137 -0.33314377 0.5093762
00000000: 0981 0f3d b788 a3bf be9a 5c3e 78bf a1bd
00000010: b47e dc3e da52 8cbd 2179 54be 331a fc3e
00000020: 9351 9ebe a1af 9abe 163c 8dbd b33c 2f3e
00000030: 424b 263e 5d9b 9abd a686 1b3d 07bb 03bd
00000040: 82c5 47be 01cb 9cbe 3df9 b33e e750 273e
00000050: 93f0 173e fff8 bebd 8c01 723e bcf1 78be
00000060: 5a59 4a3e 7e2b 0c3e cc4e 993d b44a 8b3d
00000070: 1736 77be 565f f2bd 026e 3e3e ab12 80be
00000080: be78 5e3e b7c6 313e 211a 2bbe f923 02be
00000090: 9d73 a23d b675 58be e76f 983c bb6a 8d3d
000000a0: 3144 e43c c8fe 1b3e 199a 093e 7619 c73c
000000b0: 3499 273e 8fda 1cbe 3984 1cbe 6388 8abe
000000c0: 2557 08bf 02fa dc3d 84ec 14be a501 553e
000000d0: 78c3 2f3e 32d5 a93c 7236 50be ac8f 483e
000000e0: 5698 89be 8665 3abf 601f 0e3c 95db 033e
000000f0: be2d 74bd 1bba 123e bcc5 3fbe f7eb 883e
00000100: 02f6 65c0 a3ac 10c0 0c01 b33d 2ec3 553e
00000110: c491 4ebe 41c7 963b 37f9 95bc 38f6 763c
00000120: c505 cb3e 5fca c33f 841e d2bd 9ae4 c53d
00000130: a969 bcbe a9c0 7d3d a6cd 7ebd 5550 a53d
00000140: a349 b73e 2508 453e 719e f13e c6df e63e
00000150: ade1 0ebe da6f 903c a04b 243d 8203 743c
00000160: 71b4 65bf 3127 80bf 3e3a 1f3e d388 bfbd
00000170: 94c2 003e 3c12 083e 238f 86bb 45ca f6bc
00000180: 63e3 a6be ca33 73be 0201 673e 76c1 97be
00000190: 60c8 6cbe 789a 4dbd 5c27 f43d d4aa b2bd
000001a0: 2d69 8bbe ee2e 7e3e ddd4 97be b7d4 40be
000001b0: 1894 b4bd 091b 89be 4241 eabd a7ea acbe
000001c0: 4b8d 35be 376e 01bf 3285 543e e730 8b3e
000001d0: 6f13 cc3d ffe0 fabb a9f8 f83e e430 e8be
000001e0: d8d0 a23c ba2c 58be 5a7d ae3d 05e1 6fbe
000001f0: 845e 463e a01a 66be 436a 7dbe e557 013e
00000200: f521 bdbf 237c 1b3f ea4b ee3c e337 dd3d
00000210: f6da 1bbe 09af 123d 2c32 7bbe 5f21 553e
00000220: 6d39 a0be d0d6 ecbc 60bd acbd 7097 81bd
00000230: c0d7 793d d720 02be a0af 98bc 2e09 7bbe
00000240: 0ec7 c13e 02f7 933f 64e0 853c 3b92 5dbd
00000250: 852c 52be 5f47 23bc 61a9 7cbd 5b27 c73d
00000260: db10 a1be 7d73 8c3e 7002 62be 94d2 b6bd
00000270: 7c83 a2be 2a1c 4abe 729d 463e 4a99 083e
00000280: 81ae 56c0 3a1b 563f cac6 5d3e 2194 9c3e
00000290: ec0e 40be 6cae bd3d 1c30 d3bd 8bd6 213e
000002a0: bbaf 40bd 09d7 1abf d0de 753e c1ff 093d
000002b0: d13a 04bd 9569 a8bd e92e 1bbd 1894 1f3d
000002c0: 1523 653e 67ff 6ebe 4a9c bd3e 58d5 653e
000002d0: 9756 0fbe 72df 24be 3e48 e23e e972 cabe
000002e0: ca9d 22bd 324f 14bf 3179 4cbe 18b2 b53d
000002f0: 647a 86bc 53c2 223e d4b3 1fbe b59a 4e3d
00000300: 07a7 5d3e 7a81 d93e 9d5e b4be 77fe a03d
00000310: 998e c7bd 954f da3d 71f1 c5bd a4a0 533e
00000320: b853 91bd 7896 0c3e add5 e43e 9be0 3ebd
00000330: 6045 833d 5f2e c8bd 2d11 9f3c c406 b63e
00000340: c70a e3bc 6fdb 35be afcf cbbe 0823 80be
00000350: b3c7 903d 22e0 6c3e be60 3bbe 4614 0e3e
00000360: 583c 8d3e bf7a 3bbe 7a2a 2bbe c476 3d3e
00000370: af14 c1be ffb4 f43d 0baf 9b3e 7691 67be
00000380: 336c 04be 8093 bdbb 4dc0 823e b083 eabd
00000390: c020 28be 3ec6 87be 9fbf 953e a014 f7bd
000003a0: 2874 2cbe afc7 94bf 47e3 a13d ea53 25be
000003b0: 3795 903d a2aa c1bd 0d6a 13be 01a8 a03d
000003c0: 6aa7 723e 9fe9 ac3e fcba aebe d4e8 cdbd
000003d0: 5808 1dbe e355 a8be 0688 6e3e f592 90be
000003e0: 54dc c2be fc20 533c 6549 6fbe df37 3b3e
000003f0: 7d2d 8c3e 4e98 833e d291 aabe 7b66 023f

common_layer.0.bias f4 [128]
0.52940714 -0.566512 0.40785253 0.09106451 0.29525584 -0.2744244 -0.09944513 0.36108387
0.055208933 0.15034457 -0.63387793 0.0645469 -0.3192133 -0.3470424 0.33640903 0.27341115
0.31622943 -0.0056165457 -0.069993876 0.08851248 0.2797183 0.6952012 0.9982224 0.69267595
0.333647 0.45905548 0.11353433 -0.30504602 0.10982865 0.67033964 0.2747003 -0.4011345
-0.24088627 0.83554244 0.2450615 -1.10538 -0.270259 -0.20073475 -0.19580083 0.24176285
-0.24915569 0.26454273 -0.5329822 -0.43744135 -0.34283555 0.25093266 0.039617892 -0.35698557
-0.13047978 -0.2981047 -0.4957594 0.22393508 0.43400964 0.5959617 0.20314865 -0.22235236
0.26154715 -0.2621953 0.43858308 0.473146 -0.22233756 0.47491485 0.1968088 -0.14873448
0.04372067 0.31122378 0.31700918 0.26029274 0.06708798 -0.101858154 0.7178972 0.060696274
0.3878999 0.11336619 0.0013906062 -0.50126755 0.34513494 0.65900046 0.16348664 -0.5749543
-0.03284183 -0.26571953 -0.33765292 -0.1871078 0.036691982 -0.2065826 -0.2155206 0.07165077
0.3601861 0.16935581 -0.2378316 -0.53450775 0.5116273 0.46644002 -0.5818235 -0.24597438
0.4817027 0.18157184 0.52799606 -0.17694756 0.89972675 0.24752298 -0.35829982 0.61087763
0.33471435 0.15494335 -0.06536313 0.57130605 0.2573569 0.38872638 0.30064455 0.38703993
0.82762885 0.2138723 -0.13508582 0.03103441 0.43505186 0.073509894 0.6833694 0.08321089
1.0239071 0.3711037 0.3917059 -1.5981134 0.3796941 0.31233105 -0.02622363 0.46853822
00000000: 3a87 073f ee06 11bf 0cd2 d03e 0880 ba3d
00000010: c62b 973e 5b81 8cbe e3a9 cbbd fcdf b83e
00000020: c322 623d edf3 193e d345 22bf 2a31 843d
00000030: ed6f a3be 8baf b1be ce3d ac3e 8cfc 8b3e
00000040: d3e8 a13e 000b b8bb f358 8fbd 0846 b53d
00000050: 3d37 8f3e b5f8 313f 818b 7f3f 3653 313f
00000060: c8d3 aa3e 5209 eb3e b084 e83d fe2e 9cbe
00000070: d8ed e03d 619b 2b3f 85a5 8c3e 8061 cdbe
00000080: e4aa 76be 1ce6 553f 67f1 7a3e 187d 8dbf
00000090: 635f 8abe 698d 4dbe 0380 48be ae90 773e
000000a0: ab22 7fbe 2572 873e 8571 08bf 50f8 dfbe
000000b0: 2488 afbe 3f7a 803e 5f46 223d d0c6 b6be
000000c0: 7e9c 05be 2ea1 98be 2dd4 fdbe 3d4f 653e
000000d0: 8336 de3e f290 183f 3306 503e 56b0 63be
000000e0: 82e9 853e 763e 86be f68d e03e 3140 f23e
000000f0: 75ac 63be 0a28 f33e 3f88 493e da4d 18be
00000100: 7214 333d b958 9f3e 074f a23e 1745 853e
00000110: 6c65 893d 029b d0bd 1cc8 373f a89c 783d
00000120: d19a c63e 882c e83d 0045 b63a 1253 00bf
00000130: 87b5 b03e 41b4 283f 0b69 273e 3430 13bf
00000140: 2885 06bd 640c 88be d8e0 acbe 3099 3fbe
00000150: 554a 163d 648a 53be 6fb1 5cbe a4bd 923d
00000160: 506a b83e 9c6b 2d3e 208a 73be 80d5 08bf
00000170: 02fa 023f 3ad1 ee3e 63f2 14bf b5e0 7bbe
00000180: bca1 f63e f8ed 393e c02a 073f be31 35be
00000190: 7e54 663f aa76 7d3e 1373 b7be 7a62 1c3f
000001a0: ae5f ab3e 78a9 1e3e 1bdd 85bd 1d41 123f
000001b0: 49c4 833e 2507 c73e 15ee 993e 192a c63e
000001c0: 7cdf 533f 5701 5b3e f053 0abe e03b fe3c
000001d0: 1ebf de3e 5b8c 963d 4cf1 2e3f 796a aa3d
000001e0: 630f 833f 4e01 be3e ad8d c83e fb8e ccbf
000001f0: 4467 c23e dbe9 9f3e f0d2 d6bc 3ee4 ef3e

common_layer.2.weight f4 [128, 128]
-0.09993338 -0.035640884 0.12544498 -0.030273132 -0.019870397 0.026779272 -0.020512404 0.10621415
-0.13457409 -0.46252885 -0.16872938 -0.0013558071 -0.053441066 0.02920077 -0.018827472 0.19525826
-0.17972572 -0.079984054 -1.8389354 0.0657339 -0.15581682 0.22256483 -0.67226243 -0.028027372
-0.24697758 0.1142795 0.0039966693 0.066992 -0.085352086 0.3748476 0.018593475 -0.10419858
0.052489765 -0.11412145 -0.18305899 -0.36009866 -0.034043074 -0.09904897 -0.12852798 0.08327504
-0.063439965 -1.3004481 -0.023320084 -0.05461849 -0.31397468 -0.08336073 -0.005910997 -0.038043074
-0.07060882 0.02704928 0.0138534 -0.29244927 -0.3132479 0.097414754 0.12694363 0.08303582
-0.10811055 0.0039898083 -0.073354945 -0.30162844 0.06046226 0.08483737 0.00028711182 0.06983972
-0.08284972 -0.06403786 -0.19242011 0.042951964 0.065643355 -0.12122632 0.25501713 -0.034909833
0.04649795 0.1608163 0.00040751696 0.060146295 -0.06665324 -0.13812768 0.11691874 6.3218096e-05
0.054046854 0.079588726 -0.01927232 -0.35418633 0.26852766 -0.10667814 0.0016085908 0.011142984
-0.14412875 0.056451466 -0.07968132 0.17208682 0.039437275 0.067647226 -0.28050557 -0.10317214
0.121808775 -0.034817796 -0.22989905 -0.2956644 0.27363685 0.09399725 -0.09063716 0.15382352
0.031658053 -0.19118093 0.33039755 -0.3973269 -0.29985353 0.022991987 0.11122169 -0.063032545
-0.3727234 0.07954459 -0.15879327 0.039120622 0.16722693 0.060733277 0.0062548425 -0.07663921
0.2795116 -0.24689673 -0.016829558 -0.013801392 0.045114327 0.07265007 0.08000622 0.00749766
-0.046221703 -0.040928084 0.042317078 0.03660652 -0.023620306 0.08546021 -0.06833864 -0.049426574
-0.061539464 0.034939684 0.005518093 -0.052540727 -0.044179253 -0.030744366 -0.031089796 0.04751535
-0.04278437 0.00815478 0.014651224 0.048600636 0.013591564 0.040279165 -0.07959737 -0.04489667
-0.023114188 0.0451511 -0.063099936 0.0003713593 -0.010900438 -0.082856804 -0.054368 -0.063183464
0.010233857 0.0020608536 0.06567011 -0.022805642 -0.075446524 0.028449103 -0.01384741 0.007597372
0.021730512 -0.04347062 -0.04875012 0.013236545 -0.04772214 0.025677934 -0.053189974 0.033627525
-0.086803794 -0.018393204 -0.016956188 0.014922719 -0.023386037 0.0547483 0.043793816 0.086302824
-0.0074536595 0.073085286 -0.030635914 -0.022059614 0.031095251 -0.016230926 0.026225239 -0.08353254
-0.0075483173 -0.05598822 -0.057982408 0.08807535 0.04203274 -0.071115136 0.039400157 0.08526685
0.007952544 -0.07755996 0.055832095 -0.051239125 0.056278177 -0.08619394 -0.046092078 0.073981114
-0.011205085 -0.051757567 0.03754762 0.054328334 -0.0038129343 0.08475918 -0.08406777 -0.08223093
-0.031885464 -0.057721984 -0.021160044 0.017584097 0.030584836 0.08737308 -0.01728505 -0.042275578
0.019275317 0.028408922 0.021329248 -0.03700934 0.0066666007 -0.032150395 -0.007128626 -0.013864721
0.01227746 0.03703042 -0.08679926 0.0492738 0.04093295 0.059927337 0.02527317 -0.0069263997
-0.08190571 0.0011905691 -0.0053437995 0.03662651 -0.029314352 -0.07483298 0.075175434 0.03243394
-0.06096297 -0.019933276 0.029201783 0.025121927 0.035359267 0.040386565 0.025805011 -0.0063120574
00000000: dfa9 ccbd 2dfc 11bd a674 003e 5cff f7bc
00000010: 3ec7 a2bc 3460 db3c a109 a8bc ce86 d93d
00000020: cacd 09be 95d0 ecbe 65c7 2cbe 56b5 b1ba
00000030: 05e5 5abd 7436 ef3c 123c 9abc c8f1 473e
00000040: 050a 38be aece a3bd 3c62 ebbf 7f9f 863d
00000050: 728e 1fbe 09e8 633e 6419 2cbf a999 e5bc
00000060: b1e7 7cbe 5f0b ea3d 7ef6 823b 1a33 893d
00000070: 13cd aebd 06ec bf3e 5851 983c 1166 d5bd
00000080: 82ff 563d 82b8 e9bd d173 3bbe da5e b8be
00000090: c070 0bbd 30da cabd d79c 03be 1b8c aa3d
000000a0: d0ec 81bd 1575 a6bf c309 bfbc a3b7 5fbd
000000b0: 4ac1 a0be 08b9 aabd 09b1 c1bb 0ed3 1bbd
000000c0: 5b9b 90bd 7496 dd3c 5ff9 623c e9bb 95be
000000d0: 0762 a0be 6381 c73d 83fd 013e af0e aa3d
000000e0: 1069 ddbd f0bc 823b 1e3b 96bd 0b6f 9abe
000000f0: 46a7 773d 37bf ad3d 7f87 9639 2108 8f3d
00000100: 1dad a9bd 4826 83bd c709 45be 66ee 2f3d
00000110: 0670 863d 8145 f8bd 9b91 823e 9dfd 0ebd
00000120: a274 3e3d 07ad 243e 00a8 d539 f65b 763d
00000130: 7e81 88bd 5871 0dbe 1873 ef3d f593 8438
00000140: 3c60 5d3d 6aff a23d fce0 9dbc e957 b5be
00000150: 757c 893e 127a dabd 5ad7 d23a 1091 363c
00000160: 7d96 13be a739 673d f62f a3bd 8737 303e
00000170: fb88 213d a18a 8a3d 6d9e 8fbe ea4b d3bd
00000180: e176 f93d 1b9d 0ebd a86a 6bbe 5361 97be
00000190: 211a 8c3e a181 c03d fa9f b9bd ea83 1d3e
000001a0: e0ab 013d efc4 43be de29 a93e 6e6e cbbe
000001b0: 6786 99be b159 bc3c 33c8 e33d 3517 81bd
000001c0: 9ad5 bebe 46e8 a23d b49a 22be f23c 203d
000001d0: 893d 2b3e 75c3 783d 6cf5 cc3b 05f5 9cbd
000001e0: 251c 8f3e 7fd2 7cbe 24de 89bc 3c1f 62bc
000001f0: cdc9 383d 8fc9 943d 4dda a33d eeae f53b
00000200: f852 3dbd 35a4 27bd ac54 2d3d b8f0 153d
00000210: 5f7f c1bc c305 af3d 21f5 8bbd 8573 4abd
00000220: ce10 7cbd ea1c 0f3d 1ed1 b43b f234 57bd
00000230: 4ef5 34bd 9cdb fbbc 07b0 febc 759f 423d
00000240: aa3e 2fbd a09b 053c b00b 703c 7611 473d
00000250: 27af 5e3c c4fb 243d f203 a3bd 92e5 37bd
00000260: f759 bdbc 5cf0 383d 8a3a 81bd 00b3 c239
00000270: c097 32bc d4b0 a9bd fbb0 5ebd 5566 81bd
00000280: e8ab 273c 630f 073b 0d7e 863d e6d2 babc
00000290: b583 9abd 180e e93c 3fe0 62bc 60f3 f83b
000002a0: 3004 b23c 400e 32bd 35ae 47bd 18de 583c
000002b0: 4a78 43bd 885a d23c bbdd 59bd 04bd 093d
000002c0: 30c6 b1bd 58ad 96bc b4e7 8abc 6c7e 743c
000002d0: 1394 bfbc c13f 603d 2561 333d 89bf b03d
000002e0: d43d f4bb bdad 953d 2bf8 fabc 5db6 b4bc
000002f0: 78bb fe3c b8f6 84bc 50d6 d63c 1c13 abbd
00000300: e057 f7bb e753 65bd f67e 6dbd d960 b43d
00000310: 862a 2c3d d0a4 91bd 0f62 213d 63a0 ae3d
00000320: 634b 023c c2d7 9ebd 32b0 643d 1ee0 51bd
00000330: f283 663d 7386 b0bd 0ccb 3cbd 6983 973d
00000340: 8895 37bc beff 53bd 88cb 193d 6387 5e3d
00000350: 6ce2 79bb 3996 ad3d b92b acbd b168 a8bd
00000360: 559a 02bd e36d 6cbd d457 adbc 860c 903c
00000370: 0d8d fa3c a8f0 b23d 6199 8dbc 2829 2dbd
00000380: 45e7 9d3c d4b9 e83c adba ae3c 1b97 17bd
00000390: 8073 da3b 22b0 03bd 4097 e9bb db28 63bc
000003a0: 6627 493c 36ad 173d cfc3 b1bd 53d3 493d
000003b0: 4fa9 273d 5e76 753d ae09 cf3c daf6 e2bb
000003c0: 2ebe a7bd df0c 9c3a 0a1b afbb ae05 163d
000003d0: a724 f0bc 0942 99bd 94f5 993d 73d9 043d
000003e0: 4fb4 79bd 1c4b a3bc 9438 ef3c 80cc cd3c
000003f0: e1d4 103d 626c 253d 0865 d33c 60d5 cebb

common_layer.2.bias f4 [128]
0.07948543 -0.07331777 0.13541263 -0.044709466 -0.05025841 -0.054042794 -0.00848966 -0.0766649
-0.079134285 0.01654631 -0.16613163 0.06268581 -0.015334774 -0.062725 -0.2661165 -0.031973448
-0.118092775 0.022805635 -0.1545031 -0.095561855 0.088166595 0.019542001 0.08403664 0.09708705
0.04264321 -0.010005097 -0.1349957 -0.062454626 -0.2394225 -0.24107717 -0.030598123 -0.056196287
0.009400468 -0.16741268 -0.68094313 -0.061524138 -0.024778182 0.021286642 0.00054175634 -0.040116843
-0.61886674 0.18473236 -0.16478646 0.03048868 -0.103950135 -0.1290161 -0.05495292 0.030077657
0.027069338 -0.17184754 -0.004032247 -0.08064879 0.05729911 -0.040178206 0.022592459 -0.118328616
-0.13659577 -0.002171362 -0.04989965 -0.007122299 0.045264214 -0.24110095 -0.052821703 0.016212123
-0.058792632 -0.102929294 -0.13742991 -0.14018099 0.092878506 -0.14753394 -0.020668646 -0.19558026
0.5905522 -0.028063191 0.0071142055 0.07075313 0.025022978 -0.09998811 -0.02065666 -0.0014025636
-0.021877408 0.22553363 -0.09318132 0.002981343 0.002713711 0.06948913 -0.14481074 -0.087001875
-0.2948203 0.11964143 -0.09980325 -0.108055755 -0.14614047 -0.05416573 -0.21863362 0.12390819
-0.15991242 -0.046471316 0.03767824 -0.051213123 0.12694897 -0.032731615 0.08630719 0.026012002
0.05872081 0.019174276 -0.02926646 -0.14500098 -0.077188544 0.064256325 0.0058918446 0.03789998
0.03126611 0.049734153 -0.2085296 -0.11130073 0.0487263 -0.06207771 -0.120071 -0.024804723
-0.008894669 -0.06244374 0.022381147 -0.056217525 0.054292683 0.1606755 0.024322076 -0.053815875
00000000: 42c9 a23d a127 96bd 9ca9 0a3e 4621 37bd
00000010: c3db 4dbd fa5b 5dbd 3718 0bbc 7d02 9dbd
00000020: 2811 a2bd 218c 873c 691e 2abe 6b61 803d
00000030: b43e 7bbc f775 80bd 6c40 88be 97f6 02bd
00000040: a0da f1bd e2d2 ba3c 1036 1ebe efb5 c3bd
00000050: b090 b43d 8c16 a03c 671b ac3d 93d5 c63d
00000060: a6aa 2e3d 6bec 23bc 503c 0abe 6cd0 7fbd
00000070: 2c2b 75be efdc 76be eaa8 fabc 142e 66bd
00000080: 6c04 1a3c 3b6e 2bbe 4a52 2ebf bc00 7cbd
00000090: 9dfb cabc 5361 ae3c a704 0e3a 8f51 24bd
000000a0: 0d6e 1ebf 7b2a 3d3e c8bd 28be 65c3 f93c
000000b0: cfe3 d4bd cc1c 04be 5016 61bd 6b65 f63c
000000c0: 84c0 dd3c cdf8 2fbe f020 84bb 312b a5bd
000000d0: 79b2 6a3d e791 24bd d213 b93c 4656 f2bd
000000e0: c3df 0bbe 694d 0ebb 9363 4cbd 2d62 e9bb
000000f0: f866 393d 2be3 76be 925b 58bd 49cf 843c
00000100: 8bd0 70bd 98cc d2bd 6dba 0cbe 9b8b 0fbe
00000110: 1637 be3d 2313 17be 4b51 a9bc 3146 48be
00000120: 6e2e 173f c7e4 e5bc 481e e93b 04e7 903d
00000130: fdfc cc3c 91c6 ccbd 2838 a9bc 3ad6 b7ba
00000140: 4038 b3bc 4af2 663e d9d5 bebd a362 433b
00000150: 84d8 313b 5150 8e3d 4449 14be 0a2e b2bd
00000160: b0f2 96be 9106 f53d a565 ccbd 564c ddbd
00000170: d9a5 15be e2dc 5dbd 7ee1 5fbe 94c3 fd3d
00000180: 15c0 23be b558 3ebd 8054 1a3d dac4 51bd
00000190: e9fe 013e 9611 06bd d3c1 b03d 1f17 d53c
000001a0: 3b85 703d 5f13 9d3c 37c0 efbc 237b 14be
000001b0: 0715 9ebd d298 833d 6010 c13b 023d 1b3d
000001c0: e410 003d 0ab6 4b3d c988 55be a3f1 e3bd
000001d0: 3b95 473d 3245 7ebd c9e7 f5bd 4633 cbbc
000001e0: f2ba 11bc 02c5 7fbd ab58 b73c 5944 66bd
000001f0: 0162 5e3d 1e88 243e 173f c73c 096e 5cbd

critic_layer.0.weight f4 [1, 128]
0.027872162 0.05413438 -0.1794713 -0.00053792814 -0.0014940704 0.0008747091 -0.06813345 0.041005485
-0.0005650493 -0.0010521519 0.032666143 -0.017665405 -0.056579225 0.016903521 0.015509898 0.015957057
-0.045478083 0.013761217 -0.15715775 -0.061503697 -0.0074953553 -0.0070296293 0.00802528 -0.11280352
0.00037220182 0.041283507 -0.03910186 -0.055352256 0.09441457 0.009442071 -0.05427367 0.06589901
-0.016762773 0.034295514 -0.09973703 0.047112644 3.5052326e-05 0.0338444 0.005627365 0.03194006
0.016392961 -0.0042326576 0.059361577 0.01458 -0.016434908 -0.0069317087 -0.020569766 0.038755335
-0.057494037 0.10424511 -0.07187681 -0.02646068 0.004155455 -0.038941395 -0.009807814 -0.06413636
0.005290722 0.059555855 0.0025684915 -0.013041533 -0.006905289 0.0739583 -0.015610309 -0.005455405
0.028616056 0.025924662 0.18815805 0.04553236 -0.029249193 0.0033644275 -0.061567027 0.005340047
-0.05136633 -0.02140009 -0.047664642 -0.0014476987 -0.023347301 0.017200343 0.018679418 -0.13735344
-0.001504209 0.025321456 0.055189982 -0.008966236 -0.020348066 -0.002331044 -0.086097404 0.048772655
0.10655407 -0.060361326 0.05555032 0.049782652 0.019552972 0.04065638 -0.056418538 -0.25534087
-0.002832967 -0.005262294 -0.0021691357 0.004136468 -0.18411352 -0.07770179 0.047334176 -0.04064888
-0.111724794 0.012845354 -0.034099594 -0.17608643 -0.021282177 -0.012793984 0.03162049 -0.0004794939
0.010327047 -0.026519809 -0.121541016 -0.048724797 -0.03869595 -0.025045691 -0.005449481 0.022476185
-0.03903859 0.0061422926 0.02486659 -0.0762079 0.034664337 -0.028504938 0.0061533623 -0.027884837
00000000: 2954 e43c 03bc 5d3d 53c7 37be bf03 0dba
00000010: afd4 c3ba bc4c 653a 8d89 8bbd 5ef5 273d
00000020: d11f 14ba 5ce8 89ba efcc 053d 0ab7 90bc
00000030: 9ebf 67bd 4179 8a3c 3a1d 7e3c 60b8 823c
00000040: 3a47 3abd ba76 613c f6ed 20be 4deb 7bbd
00000050: 999b f5bb ce58 e6bb 777c 033c 8805 e7bd
00000060: 1524 c339 e518 293d 4629 20bd 0cb9 62bd
00000070: 6d5c c13d ebb2 1a3c 114e 5ebd 0ff6 863d
00000080: 1552 89bc 7479 0c3d ee42 ccbd 30f9 403d
00000090: 2605 1338 6da0 0a3d c265 b83b 95d3 023d
000000a0: 884a 863c 1bb2 8abb 2025 733d f4e0 6e3c
000000b0: 80a2 86bc 6323 e3bb ed81 a8bc eabd 1e3d
000000c0: de7e 6bbd 767e d53d 2634 93bd 11c4 d8bc
000000d0: 7c2a 883b 0381 1fbd f4b0 20bc ed59 83bd
000000e0: cb5d ad3b d7f0 733d 2354 283b 27ac 55bc
000000f0: c345 e2bb 7377 973d 62c2 7fbc 41c3 b2bb
00000100: 386c ea3c f55f d43c 81ac 403e 2480 3a3d
00000110: 019c efbc ba7d 5c3b b52d 7cbd 90fb ae3b
00000120: 8065 52bd 3e4f afbc 003c 43bd b5c0 bdba
00000130: d742 bfbc bce7 8c3c 9405 993c 61a6 0cbe
00000140: e128 c5ba f16e cf3c e40e 623d 1fe7 12bc
00000150: fdb0 a6bc 6ec4 18bb d653 b0bd d6c5 473d
00000160: 0539 da3d 703d 77bd bb88 633d e5e8 4b3d
00000170: 8e2d a03c 4e87 263d 2017 67bd 0abc 82be
00000180: 4da9 39bb 526f acbb 0f28 0ebb 358b 873b
00000190: 4188 3cbe 1e22 9fbd 7be1 413d 717f 26bd
000001a0: f8cf e4bd 5275 523c 04ac 0bbd 0050 34be
000001b0: f657 aebc dc9d 51bc 7d84 013d 9564 fbb9
000001c0: c632 293c 1240 d9bc 7fea f8bd a793 47bd
000001d0: a57f 1ebd 9f2c cdbc 8f91 b2bb fa1f b83c
000001e0: eee6 1fbd 4945 c93b 05b5 cb3c e312 9cbd
000001f0: 31fc 0d3d 3083 e9bc 25a2 c93b be6e e4bc

actor_layer.0.weight f4 [2, 128]
-0.021482248 0.036034163 -0.090038985 0.00722996 0.047993183 0.0075209583 0.016980058 -0.06869938
0.0065529193 0.020461945 -0.029510383 0.0037639833 0.04827063 0.012492674 -0.031078678 -0.055046026
-0.03227328 0.013387278 0.05795321 0.06516959 0.014753019 0.019138332 -0.01003504 0.10843434
0.011534558 -0.011105577 0.003984974 0.07338237 -0.028687973 0.002931699 0.058187805 -0.06500198
-0.002746597 -0.049580365 0.11804562 0.038336344 0.0024351305 0.05081037 -0.053828824 0.035750568
0.009892292 0.016937267 -0.01174651 -0.015925728 0.059781663 0.01332298 0.017441431 -0.03908464
0.092998594 -0.08937556 -0.037332937 0.03222929 -0.0057888296 0.013402334 0.05940518 -0.032604203
-0.00027803998 0.0027810251 0.018263176 0.06302043 -0.0063351407 0.086745866 0.033483107 0.025631364
-0.015537549 -0.017207598 0.12677427 -0.037117764 -0.04924918 0.012127628 -0.041733842 0.0045993314
0.046936136 0.023287077 -0.07125338 -0.06260651 -0.020682191 -0.027289664 0.08287217 0.19167103
0.032890156 -0.11767245 -0.07129252 0.0041443785 0.052755732 -0.008750197 0.074466266 -0.035532314
-0.08470885 0.067046404 -0.0020608502 -0.03926583 -0.0030442365 0.041092947 0.031901166 -0.085925
0.011463042 0.0027638243 -0.0032511223 -0.0040877145 0.031520292 0.022079304 0.035082683 -0.0015538653
0.1232276 -0.01872717 0.0031222592 0.17424314 0.018182509 -0.007913737 -0.029171329 -0.02472505
0.0016138839 -0.0055371784 0.11805122 0.016799109 0.0018432345 -0.0132020395 0.016945455 -0.046282098
0.045596447 -0.00602799 -0.091025144 0.06708553 0.018531645 0.048095178 -0.0034228736 0.045219783
-0.03844887 0.02517379 -0.12347639 -0.0047912668 0.016019186 -0.0051307864 -0.01743981 -0.07520267
0.0035209018 -0.0109356465 0.017437477 0.013311305 0.016887058 -0.05850961 -0.021502856 0.0044338545
-0.020540284 0.041370917 0.12830377 0.08364111 0.009147156 0.044907086 -0.026410814 0.122577704
0.052464273 -0.03266058 -0.009477232 -0.027592897 -0.024489895 -0.02169598 0.05166793 -0.0014064511
-0.03858292 -0.005370327 0.09205379 0.049808707 0.011187812 -0.02383003 -0.00072607334 -0.005579413
0.005612158 0.012396547 -0.01392156 -0.017180985 -0.063797764 -0.0005506987 0.018982202 -0.029245911
0.022450875 -0.07938474 0.08396356 0.04077414 -0.014443265 -0.014486651 -0.016895942 0.055057555
-0.012030511 0.0121587515 0.030859668 0.07440703 -0.004323582 0.08003237 0.0009949543 0.009405468
0.023541052 -0.024408042 0.12357669 -0.044994656 -0.04820026 -0.042748217 0.024081234 0.003428441
0.003884945 0.037880536 -0.019879954 -0.05242728 -0.07211977 -0.02720787 -0.15451951 0.15524907
0.0052726516 0.0018481227 -0.06227181 0.0041150376 0.055578217 0.03802012 0.07207944 -0.04063594
-0.0806598 0.062273923 -0.0053534866 -0.034270573 -0.023653 -0.056312025 0.078771375 -0.074247584
-0.0043788287 0.005169195 -0.0028268609 -0.0058383113 0.01841124 0.05859586 0.13730182 0.06607798
0.06210832 -0.018115407 0.02003679 0.16874057 0.057315983 0.0035522229 0.036967583 -0.0022679276
-0.019716207 -0.006346611 0.1291928 0.045489985 0.02311054 0.03349499 -0.019301834 -0.037845086
0.04676117 0.0011798457 -0.011697042 0.0808737 -0.06830045 0.031806912 -0.0023169252 0.027191702
00000000: 8afb afbc 8f98 133d 5c66 b8bd 4de9 ec3b
00000010: 8094 443d 5f72 f63b c319 8b3c 43b2 8cbd
00000020: dfb9 d63b cf9f a73c c2bf f1bc 29ad 763b
00000030: 6db7 453d 13ae 4c3c b698 febc f177 61bd
00000040: fd30 04bd 5056 5b3c 5860 6d3d a277 853d
00000050: a6b6 713c fec7 9c3c 026a 24bc d312 de3d
00000060: 71fb 3c3c 2bf4 35bc 6394 823b 7f49 963d
00000070: 0a03 ebbc bf21 403b 5656 6e3d c21f 85bd
00000080: 4000 34bb c814 4bbd e7c1 f13d 9206 1d3d
00000090: b696 1f3b 891e 503d 9d7b 5cbd 306f 123d
000000a0: 4813 223c 06c0 8a3c 6f74 40bc ac76 82bc
000000b0: 9edd 743d a148 5a3c 55e1 8e3c 3717 20bd
000000c0: 0c76 be3d 890a b7bd 6cea 18bd dc02 043d
000000d0: 39b0 bdbb 7795 5b3c d952 733d fc8b 05bd
000000e0: e5c5 91b9 dc41 363b a89c 953c db10 813d
000000f0: 0397 cfbb d1a7 b13d 9525 093d def8 d13c
00000100: 3491 7ebc f3f6 8cbc 1dd1 013e cc08 18bd
00000110: 82b9 49bd f5b2 463c 1bf1 2abd fdb5 963b
00000120: 1b40 403d 8ac4 be3c 4bed 91bd d837 80bd
00000130: b36d a9bc 938e dfbc e2b8 a93d 6945 443e
00000140: d4b7 063d 41fe f0bd d001 92bd 91cd 873b
00000150: 6516 583d fc5c 0fbc c581 983d 558a 11bd
00000160: d57b adbd a04f 893d 540f 07bb 35d5 20bd
00000170: d081 47bb 1451 283d ccaa 023d 72f9 afbd
00000180: 7ccf 3b3c 4721 353b c810 55bb 3cf2 85bb
00000190: 6c1b 013d a8df b43c dcb2 0f3d 11ab cbba
000001a0: c05e fc3d b969 99bc d19e 4c3b cb6c 323e
000001b0: 7cf3 943c 9ea8 01bc b6f8 eebc 308c cabc
000001c0: f588 d33a 3871 b5bb d7c4 f13d 499e 893c
000001d0: b098 f13a 5e4d 58bc 32d1 8a3c 4c92 3dbd
000001e0: 57c3 3a3d 7286 c5bb 646b babd 2364 893d
000001f0: adcf 973c 73ff 443d 4a52 60bb 6138 393d
00000200: 907c 1dbd 4439 ce3c 31e1 fcbd 0f00 9dbb
00000210: ab3a 833c 2820 a8bb efdd 8ebc dc03 9abd
00000220: eebe 663b 6d2b 33bc 0ad9 8e3c a917 5a3c
00000230: ba56 8a3c c6a7 6fbd c226 b0bc de49 913b
00000240: 1944 a8bc 8d74 293d 1062 033e 084c ab3d
00000250: f4dd 153c 7ef0 373d 7e5b d8bc 050a fb3d
00000260: c7e4 563d 1ac7 05bd 6446 1bbc 800a e2bc
00000270: 089f c8bc c5bb b1bc c0a1 533d ab58 b8ba
00000280: 2009 1ebd 91f9 afbb b386 bc3d 3704 4c3d
00000290: 164d 373c 3237 c3bc f555 3eba 82d3 b6bb
000002a0: 32e6 b73b e31a 4b3c 4117 64bc 23bf 8cbc
000002b0: 67a8 82bd c45c 10ba 9080 9b3c 1f95 efbc
000002c0: e6ea b73c 7794 a2bd 16f5 ab3d c902 273d
000002d0: 72a3 6cbc 6b59 6dbc 5c69 8abc 0884 613d
000002e0: 9f1b 45bc 8035 473c 6acd fc3c b762 983d
000002f0: d6ac 8dbb 03e8 a33d 2069 823a 6419 1a3c
00000300: 2ad9 c03c 60f3 c7bc c715 fd3d 514c 38bd
00000310: a36d 45bd c118 2fbd 0246 c53c b2af 603b
00000320: 909a 7e3b 9f28 1b3d 49db a2bc fdbd 56bd
00000330: 88b3 93bd 0ae3 debc 5d3a 1ebe 9df9 1e3e
00000340: 35c6 ac3b b53c f23a ba10 7fbd 70d7 863b
00000350: fca5 633d fcba 1b3d 639e 933d df71 26bd
00000360: f730 a5bd f112 7f3d 4d6c afbb 4d5f 0cbd
00000370: f0c3 c1bc 70a7 66bd e352 a13d 1e0f 98bd
00000380: 477c 8fbb 5a62 a93b db42 39bb 4e4f bfbb
00000390: 2bd3 963c 3602 703d d998 0c3e e453 873d
000003a0: 4b65 7e3d c366 94bc 3224 a43c 54ca 2c3e
000003b0: 2ac4 6a3d 69cc 683b 526b 173d 83a1 14bb
000003c0: e283 a1bc 3bf7 cfbb 1e4b 043e b553 3a3d
000003d0: 5152 bd3c 0b32 093d e11e 9ebc 7303 1bbd
000003e0: a488 3f3d 0da5 9a3a f3a4 3fbc 1ca1 a53d
000003f0: 1be1 8bbd f747 023d 8ed7 17bb 22c1 de3c

actor_layer.0.bias f4 [2]
-0.0023307938 0.073806524
00000000: 3bc0 18bb e027 973d
