DQN/dqn/DQN_MountainCar-v0-v1.pth (torch, 272390 bytes, 6 tensors)

output_layer.0.weight f4 [256, 2]
000000 54 fb 2d 3e ba 00 86 c0 16 98 80 3e 37 29 73 3e
       0.16990405 -4.1875887 0.25116032 0.23746191
000010 6e fc dc 3e 36 c1 b6 be 30 0a a5 3c 18 8d 89 c0
       0.4316134 -0.35694283 0.02014646 -4.2984734
000020 ad 90 06 3c 16 06 6e c0 ab 0d 3f 3e 9c b6 39 3e
       0.008213204 -3.7191215 0.18657558 0.18136066
000030 f7 90 44 3e f2 d1 aa be 69 a0 92 be dd 24 1c 40
       0.19195925 -0.333633 -0.28638008 2.43975
000040 c3 13 c4 be 9f 02 2b bf 70 5b f4 be a7 9a a7 3f
       -0.38296327 -0.66800874 -0.4772601 1.3094071
000050 d9 76 7f 3f 3a 47 56 3f 1b 3a 1b 3e 4d 63 81 c0
       0.9979072 0.83702433 0.15158884 -4.0433717
000060 8e f5 b9 3e 18 37 d1 ba 6e 15 3c bd 99 ba 5a 3f
       0.36320156 -0.0015961854 -0.045918874 0.85440975
000070 c4 0d 07 bf 5f ae c7 3f 00 8b c6 3e 64 94 14 3f
       -0.5275538 1.5600089 0.38777924 0.58038926
000080 6d 03 46 be 79 6f 72 c0 c8 80 0c be ba 51 ac 3e
       -0.19337244 -3.7880538 -0.13721001 0.33656102
000090 93 8d c3 3f 88 85 67 40 2e 5b 70 3f 4b b7 c4 40
       1.527758 3.617525 0.9388913 6.1473746
0000a0 17 da 34 bd 3e de 26 bf e2 95 53 3d 94 66 8a 3e
       -0.0441533 -0.65182865 0.05165661 0.27031386
0000b0 39 b9 6f 3f 63 7a a0 bf f5 2a 00 3d 0e cc 41 c0
       0.93642 -1.253735 0.031290967 -3.0280795
0000c0 62 d2 89 3f 6c f5 6a bf 79 df 6f bf ba 99 36 3f
       1.0767329 -0.91780734 -0.9370037 0.7132832
0000d0 e2 63 4a 3f c4 f6 a4 3f 50 e7 24 be b9 e8 4f bd
       0.7905866 1.2887807 -0.16103864 -0.05075905
0000e0 0b 8b ad 3f 7c c3 64 40 e5 f7 89 bd e1 79 00 bf
       1.3558058 3.5744314 -0.06736735 -0.5018597
0000f0 e4 a4 0c 3f 21 c5 a9 be 20 8b 4a 3f c4 d7 d3 3f
       0.54939103 -0.3315821 0.7911854 1.6550221
000100 92 a0 04 3f d5 23 76 3f fb 56 c1 3e d7 9c 01 40
       0.5180751 0.96148425 0.37761673 2.0251977
000110 60 68 c4 be 4b ca 1b 3f 1e 45 83 bd fb 2a 15 bf
       -0.38360882 0.6085555 -0.064096674 -0.5826871
000120 57 78 9a be a9 78 8b be 90 2b 7b bd 58 22 00 40
       -0.30169937 -0.27240494 -0.06132084 2.0020962
000130 5c 9f 64 3e b9 80 06 bf 1a a8 d1 bd 5b b3 8a be
       0.22326416 -0.52540165 -0.10237141 -0.27089962
000140 b2 42 cc bc ad c4 0a bf 2f 7d 67 3f a3 de c4 bf
       -0.024934147 -0.54206353 0.9042539 -1.5380443
000150 e5 43 91 be bf 86 00 3f 45 07 0f 3f d5 ee 0f be
       -0.28372112 0.50205606 0.5587047 -0.14055951
000160 01 46 bf bc 52 69 13 40 df 69 8d bf 68 0e 71 3f
       -0.02334881 2.3033032 -1.1047934 0.9416261
000170 fd 2e 3d 3f 2b 99 22 41 a7 53 d6 be 91 29 f8 3e
       0.73899823 10.162395 -0.41860697 0.48469213
000180 13 e2 6e 3f 7e 50 db bf d6 68 f8 be 33 f3 cd bf
       0.9331371 -1.7133939 -0.48517483 -1.6089844
000190 a8 94 1a 3e 61 ef f2 3e 31 60 13 3e c8 2f 9a 3e
       0.1509577 0.47448257 0.14392163 0.3011458
0001a0 bb f5 c8 bc e6 7d 0c bf 9a ad 18 3e 34 93 0f 3f
       -0.024531236 -0.54879606 0.14909974 0.5608399
0001b0 68 17 7b bf 73 81 d6 40 08 63 f1 3e 5a 5f d8 3e
       -0.9808259 6.703302 0.47145867 0.42260247
0001c0 54 5f 80 3f 49 49 2b 41 0e b8 c1 be c9 5b a8 3e
       1.0029092 10.705392 -0.37835735 0.32882527
0001d0 9e 11 3e bf 31 8f cb 3f df ae 10 3e 0b 93 40 bd
       -0.7424563 1.5903074 0.14129208 -0.04701523
0001e0 24 a3 70 3e d0 85 b4 be b5 d4 d3 3e 8e 4e 24 c0
       0.23499733 -0.3525834 0.4137322 -2.5672946
0001f0 bb 39 46 bf 04 6d 5e c0 8f d6 9e 3e 2b f5 9b 3d
       -0.7743184 -3.4754038 0.3102307 0.076151215
000200 51 40 83 3f 83 8f 41 bf a5 59 91 3f 37 1b 80 bf
       1.0254003 -0.75609607 1.1355482 -1.0008305
000210 80 04 bf be e2 2f 71 3f b8 22 7d 3e d8 b7 06 40
       -0.3730812 0.9421369 0.24720275 2.104971
000220 b3 18 7d bf aa fc a6 bf 8f 35 e0 3e e1 6e 2d bf
       -0.98865813 -1.3045857 0.43790862 -0.6774731
000230 1a e8 1d bc 02 ba 8d c0 5d 3f 76 3f 9b ec 11 3d
       -0.009637857 -4.428956 0.96190435 0.035626035
000240 21 f6 11 be e1 20 2d bf a0 0f 9a 3f 41 c7 77 3f
       -0.14254047 -0.67628294 1.2036018 0.9678841
000250 de d8 3a be 9c 5a aa be 21 44 17 3d 58 1d 31 c0
       -0.18246791 -0.33272254 0.036930207 -2.767416
000260 63 67 b6 be a0 23 08 3f a8 a0 14 bf e9 f1 2e 41
       -0.35625753 0.5317936 -0.5805764 10.93406
000270 21 66 10 bb 27 34 30 3e 53 2b 8a 3e 54 49 e1 be
       -0.002203353 0.17207395 0.2698618 -0.44001257
000280 a6 a6 9b be ca 05 87 3e f4 de a9 3f c7 50 b8 40
       -0.3040058 0.26371604 1.3271165 5.7598605
000290 3b c2 88 be a3 e7 19 be 3e 5d d4 be 7b 3a 69 c0
       -0.26710686 -0.15029769 -0.41477388 -3.6441944
0002a0 d3 a9 38 be 50 87 82 c0 c3 92 c7 3d fd 83 fe 3e
       -0.18033533 -4.0790176 0.097447895 0.49710074
0002b0 bc c7 0a 3f 38 00 79 be e0 c9 17 3d d2 ac 42 c0
       0.5421102 -0.2431649 0.037057757 -3.041798
0002c0 aa 27 8b 3e 82 25 f8 3f 26 e8 0a 3e 9d 69 57 c0
       0.271787 1.9386446 0.1356512 -3.3658211
0002d0 65 58 8f 3f b5 6f 6b 3e 2e 06 ab be c4 4e de 3f
       1.1198851 0.22991832 -0.33403152 1.7367787
0002e0 92 33 96 3f ff e5 c9 40 f9 b0 c4 3d a4 12 02 40
       1.1734488 6.3093257 0.09604067 2.0323877
0002f0 99 cc f4 3e 7c 7d 2a 3f d5 dd be bc 2f b9 b6 3f
       0.47812346 0.66597724 -0.023299137 1.4275264
000300 5e ea 94 be 98 c7 2c 3f b4 bf 2f 3f 45 0a 2b 40
       -0.29085058 0.67492056 0.6865189 2.6725018
000310 24 9e 58 3b 97 a9 90 3e 12 f4 78 be 25 dd 35 41
       0.0033053244 0.28254387 -0.24311855 11.36649
000320 f9 7d 38 3f b6 e3 29 c0 fa 67 4f bf 1c 45 06 c0
       0.7206722 -2.6545234 -0.8101803 -2.097968
000330 a5 3c 0f bf c3 4c 36 3f fd ea 9d 3c 04 3c 54 c0
       -0.5595191 0.7121088 0.01927709 -3.316163
000340 8e cf 67 3f 68 6f 4a bd 22 00 91 3e cb 45 33 bf
       0.9055108 -0.04942265 0.28320414 -0.7002837
000350 70 f1 c0 3f 49 cd 5e 40 32 b1 79 bf 34 a8 95 3e
       1.5073681 3.4812796 -0.97536004 0.2922989
000360 4a e4 94 3e 76 ae 89 3f 40 be 93 be cf 12 23 c1
       0.2908042 1.0756366 -0.28856087 -10.192092
000370 84 8e 7f be 00 3a 06 40 d4 30 3a bf 21 f7 00 c0
       -0.24956709 2.09729 -0.72730756 -2.0150836
000380 12 eb eb 3e b4 29 d3 3e 8c 36 5f 3d 56 0e 47 c0
       0.46077782 0.41242754 0.05449538 -3.11025
000390 46 06 5c 3f 2e 7e b0 3f 6a 62 82 bd df 8b 19 c1
       0.8594707 1.3788507 -0.06366427 -9.596648
0003a0 9c ee 4d bd b1 ee 9e be 89 da 47 bd 65 1e 0d 3f
       -0.050276384 -0.31041482 -0.048792396 0.55124503
0003b0 60 3e bc 3e 31 35 1f be 31 8f 87 3f b9 43 92 bc
       0.36766338 -0.15547635 1.0590574 -0.017854558
0003c0 a6 79 1b be 7e 73 7a bd 4b fc df 3e 62 6c 07 be
       -0.15183124 -0.0611453 0.43747172 -0.13224939
0003d0 53 f7 6d be 2d 69 25 3e 5b 1a 0b 40 f4 26 2d bf
       -0.23238878 0.16153403 2.1734836 -0.6763756
0003e0 bf d2 a3 3f 64 ab 25 41 66 17 24 3f 80 8c 8a c0
       1.279869 10.354343 0.64098203 -4.329651
0003f0 27 da 86 3f 1b ad be 3f bf 14 35 3f 08 0c 2e 41
       1.0535325 1.4896578 0.7073478 10.877937

output_layer.0.bias f4 [256]
000000 68 4e fe 3d 29 1b c5 be 6a 1b 65 be b9 98 7f 3e
       0.124172986 -0.38497284 -0.22373739 0.24960603
000010 08 ca 8e be 87 38 03 bf db ff 2c bf bc da d5 3f
       -0.27888513 -0.5125813 -0.67577904 1.6707377
000020 68 ed 09 bf 79 56 bd 3f 0b 60 d4 3f 04 28 e0 3d
       -0.5387788 1.4792014 1.659181 0.109451324
000030 ff 5a ee be 8c 75 cf 3f 54 31 ed 3f 04 12 66 be
       -0.465538 1.6207747 1.8530679 -0.2246781
000040 f8 74 72 3e 6d b5 39 be 3a d3 81 3f 99 59 25 3f
       0.23677433 -0.18135615 1.0142586 0.6458984
000050 25 31 f4 bd 8e aa ab be 37 fc 8e 3f 58 b1 48 3e
       -0.11923436 -0.3352856 1.117072 0.19598901
000060 c3 d4 a3 3f 6b 0a 97 3e 7c 2d df 3f e1 8f 32 bf
       1.2799305 0.29500136 1.7435756 -0.6975079
000070 7c 17 82 3f be d7 ea be 8a 79 10 3f e7 ea 91 3f
       1.0163417 -0.45867723 0.56435454 1.1399812
000080 aa 83 cc 3f 7e b8 91 3f 32 32 06 bf 42 bd ec be
       1.5977681 1.1384428 -0.5242034 -0.46238142
000090 26 71 32 bf a2 23 a2 3f a6 e6 d9 be b8 0e 80 be
       -0.697039 1.2667124 -0.42558783 -0.2501123
0000a0 b1 01 c3 bd 91 1b 8a 3f 2c f1 2f bf 54 3f cd 3f
       -0.09521807 1.0789663 -0.68727374 1.6034951
0000b0 42 94 93 3f f7 ad cc 3f 92 2f 0b 3f f3 36 0e bf
       1.152962 1.599059 0.5436946 -0.55552596
0000c0 27 c0 8e 3f 34 a8 37 bf 8c 50 c7 be 3d 7f 2a bf
       1.115239 -0.7174103 -0.3892864 -0.666004
0000d0 05 a2 0a bf f5 bf d8 3f 5a 9c 5a bf 41 31 21 bf
       -0.5415347 1.6933581 -0.85394824 -0.6296578
0000e0 4b 92 ab be 8e b3 c3 3f ce 36 df 3f 2d a3 22 be
       -0.3351005 1.5289171 1.74386 -0.15882559
0000f0 57 34 fe be 16 5e 06 3f 8c 01 4e 3e 47 39 c4 3f
       -0.49649307 0.52487314 0.20117778 1.532998
000100 49 59 a0 3f e4 d7 ac 3f 61 3b c8 3f 40 43 a9 3f
       1.2527248 1.3503385 1.5643121 1.3223648
000110 e5 1f 93 3e 22 55 0e bf 1d 75 8c 3e 8a 37 ce 3f
       0.2873527 -0.5559865 0.274331 1.6110699
000120 75 82 d5 be 44 a8 d3 3f 32 9d 80 be c2 36 3f 3e
       -0.41701093 1.6535726 -0.2511993 0.18673232
000130 11 67 0d bf c0 76 26 bf 38 92 15 bf 00 65 cb be
       -0.5523539 -0.6502495 -0.5842624 -0.39725494
000140 8e 5f d3 be 9c ae 6f 3f 06 0e aa be ef a7 ae 3e
       -0.4128384 0.9362581 -0.33213824 0.34112498
000150 dc cc 55 3e 77 76 d8 be 47 52 b3 be 1f 2d 44 3e
       0.20878929 -0.42277882 -0.3502371 0.19157837
000160 f3 30 96 3f f5 a8 ca 3d e8 a5 b5 3f e8 b1 ab 3f
       1.1733688 0.09895507 1.4191256 1.3413668
000170 fa 6e 4a 3f 04 f8 bc 3f fa fb d1 3f f0 6f 8f 3f
       0.79075587 1.4763188 1.6405022 1.1206036
000180 18 d5 e6 3f ed 58 3d 3f 56 53 bc bd 84 bb f4 be
       1.8033781 0.73963815 -0.091955826 -0.47799313
000190 6e 07 15 3f 83 27 1f bf d3 38 df 3f 75 c5 5d 3e
       0.5821446 -0.62169665 1.7439216 0.21657355
0001a0 77 6a c2 3f c4 41 2f bf ae 2c 8b 3f 78 69 9e 3e
       1.518874 -0.68459725 1.087301 0.3093984
0001b0 be f1 b6 3f 87 2a 89 3e 1d 44 ec 3f d8 6d 34 3e
       1.4292524 0.26790258 1.8458287 0.17620027
0001c0 9c 00 03 bf a5 9c 28 3e 71 c0 ce 3f 16 4e 93 3e
       -0.51172805 0.16466005 1.6152478 0.28770512
0001d0 d6 16 9a be b7 69 13 be ba 61 fe be f3 37 a7 3f
       -0.30095547 -0.14395796 -0.49683934 1.3063949
0001e0 7b 84 db be 01 a3 1c bf 03 bd 04 bf c3 96 4f 3f
       -0.42874512 -0.61186224 -0.5185091 0.8108942
0001f0 af dc c9 be a5 a9 f1 3e 51 5a bb 3f 13 3c 8e be
       -0.3942618 0.4719974 1.4636937 -0.27780208
000200 e7 76 d8 3f 0d f2 f6 be f2 22 a2 3f 6f cc 4b be
       1.6911286 -0.48231545 1.2666914 -0.19902204
000210 98 0c ef 3f 93 3b ad 3f 71 36 59 3f 04 98 a7 3f
       1.8675718 1.3533806 0.84848696 1.3093266
000220 e8 14 66 3e c6 c1 ea 3e 1f a5 ed 3f 93 01 96 3f
       0.22468913 0.45850962 1.8566016 1.171923
000230 1a b9 12 be 4e 18 8f be 00 5e ac 3f 20 9d f1 be
       -0.14328423 -0.2794823 1.3466187 -0.4719019
000240 d9 1e 8c 3f 63 a0 67 3e 73 ce b7 3e bc ff 0c bf
       1.0946914 0.22619776 0.35899696 -0.5507772
000250 fb 9c 16 bf 68 ef a1 3f 4d e7 d7 3f b1 30 8f 3e
       -0.58833283 1.2651186 1.6867462 0.27966836
000260 e8 4c 64 3f a9 e0 9d 3f 4b e3 91 3f ce a7 38 3e
       0.8917985 1.2334186 1.1397489 0.18032762
000270 86 d7 a1 3f e6 e4 43 3e 7c df 9c 3e e0 20 ba bd
       1.2643898 0.19130287 0.30639255 -0.09088302
000280 50 b6 a2 be 7e e9 76 3f 6c 67 ff be 73 0e e1 3f
       -0.31779718 0.9645003 -0.49883592 1.7582535
000290 73 a5 26 bf d3 b0 fa be e5 3f 87 3e 6d 7f 8b 3f
       -0.65096205 -0.4896303 0.26415935 1.0898262
0002a0 48 41 cf 3f 62 7e 05 bf 4b 31 fb 3f 10 c1 8d be
       1.6191797 -0.5214597 1.9624418 -0.27686357
0002b0 bb 35 2f 3e 4d 23 aa 3f 0b 4b 70 3f de e3 dd 3e
       0.1711034 1.3292023 0.93864506 0.4333791
0002c0 ce 62 9e 3f a0 d8 57 3e 8a 7e 78 3e 38 39 ec be
       1.2373903 0.2107873 0.24267021 -0.46137404
0002d0 d6 1c 82 be de 99 10 bf 18 c7 ec 3f 28 71 d7 be
       -0.25412625 -0.5648478 1.8498259 -0.4207852
0002e0 26 71 32 bf 14 99 f0 3f 65 a2 6d 3f 80 f3 11 3f
       -0.697039 1.8796716 0.9282592 0.57012177
0002f0 03 59 0e bf 74 14 82 be 6a 9f 81 3f b1 4a bf 3e
       -0.5560457 -0.2540623 1.0126774 0.37361673
000300 91 c9 e6 3f ef 87 63 3f 64 1f 89 3f 3b c6 2a bf
       1.8030263 0.88879293 1.0712705 -0.66708726
000310 1b 3f f6 3d d2 39 dc 3f 71 fb d8 3f 09 31 32 3e
       0.12023755 1.7205145 1.6951734 0.17401518
000320 55 89 cc be 23 82 a3 be 78 9a 9e 3e f8 4e e2 3f
       -0.39948526 -0.31935224 0.30977225 1.7680349
000330 a9 bc ce 3f f5 b3 93 3f ed 71 4b be 96 f7 4c 3f
       1.6151325 1.1539294 -0.19867678 0.80065286
000340 8e 93 e3 be a1 c5 ab 3e af 9b 05 bf 1f bb 63 3f
       -0.44448513 0.33549216 -0.5219068 0.889574
000350 13 6d 6c 3f 5b 19 0f bf 71 59 d0 3f 69 0e 6f 3e
       0.92353934 -0.55898064 1.6277295 0.23345341
000360 d9 09 97 3e 23 43 cf 3f fd c5 e6 bc 92 31 9f bc
       0.294997 1.6192364 -0.02817058 -0.019432817
000370 31 ef 23 bf 64 d1 9f 3f 9c 6d e2 bd c7 10 71 3f
       -0.6403685 1.2485776 -0.110560626 0.94166225
000380 59 ba 0a be 74 29 f0 be d0 bd a6 3f 8a 05 be 3f
       -0.13547648 -0.46906626 1.3026676 1.484544
000390 76 d8 d4 3f 61 54 a4 be 0c cd f8 3e a5 b6 8f be
       1.6628559 -0.32095626 0.48593938 -0.28069034
0003a0 54 2f b3 be 1e f0 98 3f 8c e4 94 be fa d2 6e 3e
       -0.34997046 1.1948278 -0.29080617 0.23322669
0003b0 be 16 97 be 7c 86 c8 3f 71 41 12 bf ca 5f 91 3e
       -0.29509538 1.5666041 -0.57131106 0.28393394
0003c0 fc 51 af 3e 29 70 c8 3f d0 36 97 3e 31 51 9a 3e
       0.34242237 1.5659229 0.29534006 0.3014007
0003d0 ff 07 8b 3f e2 ea 9d 3f 5a a6 fb 3f f4 44 22 bf
       1.0861815 1.2337306 1.9660141 -0.63386464
0003e0 0d 13 8c 3f b7 e6 95 3f e0 f8 29 bf d5 ac 2f be
       1.0943314 1.1711034 -0.6639538 -0.17155774
0003f0 47 d8 15 3f 61 c8 6e 3f 6e 84 c1 3f e0 75 0b bf
       0.5853314 0.93274504 1.5118539 -0.5447674

output_layer.2.weight f4 [256, 256]
000000 98 09 a8 3c ee 6d 36 3d fa ea 38 3d 72 9f c7 3e
       0.020512387 0.04453843 0.045145966 0.38988835
000010 53 f0 4b be f4 1e 98 bc 38 44 23 3c dd 1e a8 3d
       -0.19915895 -0.018569447 0.009964995 0.08209012
000020 c2 23 17 3e 75 c8 c6 3d d7 d0 2b 3e 8f d2 9f bc
       0.14759734 0.09706203 0.16778885 -0.019509582
000030 fc 81 70 bd 1a d3 bc 3d ce 2f 2a 3c dc d4 1d 3d
       -0.058717713 0.09219952 0.010387374 0.038533077
000040 9a 2e 0a 3d 33 01 31 bc f4 c1 02 bd 37 1d 37 bf
       0.03373585 -0.010803509 -0.03192325 -0.71528953
000050 34 5e 54 bd f0 5c d9 3b 38 06 65 3e bf 16 1b 3f
       -0.05184765 0.0066333935 0.22365654 0.6058158
000060 fe 98 54 3e 2b c7 a8 be 0a a5 3c 3e 80 c6 7f bb
       0.20761487 -0.32964453 0.18422332 -0.0039028227
000070 3e 0b 8b be 10 e9 7f bc 0e d6 07 3f 15 fe 4d 3e
       -0.27157015 -0.015619531 0.53060997 0.20116456
000080 de 46 cb 3d 76 d0 8f 3d 3e f9 61 bd e0 6e c8 bb
       0.09925626 0.07022183 -0.055169336 -0.006116733
000090 40 31 64 bc bb 56 42 3d 40 08 e9 3c 00 a5 48 bd
       -0.013927758 0.047445994 0.028446317 -0.04898548
0000a0 a6 e0 9c 3d 56 7a 9c 3e 50 78 ea bc 5a 66 1a 3e
       0.07660036 0.30562085 -0.028621823 0.15078107
0000b0 b2 d1 c5 3d 55 66 2e 3d 0e 2e c7 bf f8 56 a8 b9
       0.09659137 0.04257806 -1.556093 -0.00032108254
0000c0 ae 41 86 3e c4 cd b9 3d c0 a5 4c bd ba 12 13 3d
       0.26221985 0.0907245 -0.04996276 0.03590653
0000d0 98 12 3d bd ee 06 b9 3d b4 3e 96 c0 f0 af 3f 3c
       -0.04616031 0.09034525 -4.695154 0.011699662
0000e0 52 12 3f c0 6c 80 75 3c 01 1b af 3d 54 1b 6c bd
       -2.9854932 0.014984231 0.085500725 -0.05764325
0000f0 d8 f7 3e bc 8d c5 46 3e c6 48 cb be ab 03 0e 3e
       -0.01165577 0.19411297 -0.3970396 0.13868587
000100 17 a1 88 3e 84 87 65 3e 91 69 c0 3d 6e 38 d5 3d
       0.26685402 0.22414976 0.09395135 0.10411154
000110 8d f7 dc be d8 e7 25 3c b2 9b 4d 3f d2 40 db 3d
       -0.43157616 0.010126077 0.803157 0.10705723
000120 68 f4 8e 3c f7 c8 47 3e c8 d4 02 3d 1d b2 14 3f
       0.017450526 0.19510256 0.031941205 0.5808428
000130 f0 57 90 bc 7e 55 00 c1 48 1b 4c bc e8 f3 93 3c
       -0.017620057 -8.020872 -0.012457676 0.01806064
000140 46 6b 30 3d 26 e8 18 be b7 ba 43 bd 7a 15 cf 3d
       0.043071054 -0.14932308 -0.047785487 0.10111518
000150 5d 25 89 3d f6 fb 43 bd b0 eb 4d bd e4 8d f4 3e
       0.066965796 -0.04784771 -0.050273597 0.47764504
000160 34 8e 8e 3d 6f ae 79 bd f6 d4 2c 3e ac 5c 8e 3d
       0.06960717 -0.06095737 0.16878113 0.069512695
000170 4b 0b 9b be d2 44 3b 3d 29 ca f2 3d d3 bc 31 3d
       -0.30282053 0.04571993 0.11854965 0.043392967
000180 ea db 02 3e 71 1c aa 3d 82 54 5d bd 9b b7 d5 c0
       0.12779203 0.08306206 -0.05403567 -6.678663
000190 c3 fe 19 c0 d8 05 2f c0 ff f9 9b 3d 84 d0 31 3f
       -2.4061744 -2.7347317 0.07616042 0.69458795
0001a0 8b a4 e6 3d 90 d2 1f bc 86 78 f0 bd 3f a3 9e bf
       0.11261853 -0.009754792 -0.11741738 -1.2393569
0001b0 0a 7e cd 3d 78 c4 02 c0 a2 07 6e 3d 43 3c 99 be
       0.10033806 -2.0432415 0.058112748 -0.2992879
0001c0 f6 64 15 bd cd b2 73 3e 93 96 3e 3e 84 41 2f c0
       -0.036473237 0.23798676 0.18612127 -2.7383738
0001d0 38 bd c3 3c 20 b1 27 3c 3c ce 5b bd 54 31 64 3e
       0.023893937 0.010235101 -0.053663477 0.22284442
0001e0 b8 e1 8e 3c e0 7f 79 3d 6a c8 6d 3d 09 fc 6d 3f
       0.017441615 0.060912967 0.058052458 0.929627
0001f0 2a dd 46 c0 16 b2 31 c0 79 ca 61 3e 8a 8a 4c c0
       -3.1072488 -2.7764945 0.22049893 -3.1959558
000200 c0 65 d9 3d ca 4d 13 3d 47 15 3a 3e 42 41 4b 3c
       0.106151104 0.035962857 0.18172179 0.012405695
000210 9d f1 c9 3d 8b 0b e7 3d 51 c1 04 be 8c 42 59 3e
       0.09860537 0.112814985 -0.1296437 0.21216792
000220 d0 7b c4 3a 55 19 c7 3e c6 07 ee 3d e1 99 cd 3d
       0.0014990512 0.38886514 0.116225764 0.10039116
000230 6b 0a b3 3e 89 24 53 c0 ad 55 cf 3c a0 8d 58 3c
       0.34968886 -3.299105 0.025309408 0.01321736
000240 bf 5e a8 3b db bf 90 be 55 88 e2 be 00 65 8d 3a
       0.0051382477 -0.28271374 -0.44244638 0.0010787547
000250 98 f8 a2 bc 1d b3 a7 3d 20 4f 8a 3d 3e b8 f0 bf
       -0.01989393 0.0818846 0.06753373 -1.8806226
000260 25 1e 6f be d1 fe fb 3d d3 59 a5 3d 13 7e bc 3d
       -0.23351343 0.12304462 0.08073773 0.09203734
000270 6a f7 29 3e f5 1a 7f bd ab 2b a4 be 9a 06 2a bd
       0.16598287 -0.062281568 -0.32064566 -0.041510202
000280 cd d7 ab c0 67 6d b5 3d 98 5e 5f 3d 31 e4 a5 3d
       -5.370093 0.088587575 0.05453357 0.08100165
000290 87 f2 a6 3d b0 24 1c bc dc 0e 45 3f a6 e7 96 3d
       0.08151727 -0.009530231 0.769758 0.07368402
0002a0 e8 c0 b4 3d 06 36 68 bd 42 0d 4c 3d d0 40 88 bb
       0.088258564 -0.056692146 0.04981733 -0.004158117
0002b0 43 c0 00 3f 43 78 14 3e 2d 42 6e bc 1b a0 18 c0
       0.5029337 0.14499001 -0.014542145 -2.384772
0002c0 ac fa 6d 3e cc 3d 31 3f 08 0c 38 3f e4 ad 99 3c
       0.23240155 0.6923492 0.7189336 0.018759675
0002d0 d9 b6 53 c0 c8 30 f9 bc e2 14 7d 3d 00 55 17 ba
       -3.3080351 -0.030418769 0.061787494 -0.0005772859
0002e0 80 53 2c 3d 62 e9 35 3d c7 9d 88 be 0c 6d 0e be
       0.04207182 0.044412024 -0.26682875 -0.13908786
0002f0 20 72 1d bb 96 f1 71 bd 40 5e 12 3e 63 22 a2 bf
       -0.0024024323 -0.059068285 0.14293766 -1.2666744
000300 cb 26 0d 3e a3 c1 c2 3c c7 b8 dc 3d c0 c3 10 3d
       0.1378433 0.023773974 0.10777431 0.03534293
000310 17 60 49 c0 bb 09 2f 3d 30 a1 c7 3d d1 d9 73 3e
       -3.1464899 0.04273389 0.09747541 0.23813559
000320 b8 49 0f 3d 72 3a 39 3d 8a f2 0e c0 e7 ac 1b 3e
       0.034982413 0.045221753 -2.2335534 0.15202676
000330 3e 1a 85 3d e3 0a b8 3d 38 da d1 bc 74 e3 97 be
       0.06499146 0.089864515 -0.02561675 -0.2966572
000340 9c e8 cf 3c fb d3 34 c0 04 97 bb 3c e0 ca 04 3e
       0.025379471 -2.8254383 0.022899158 0.12968016
000350 7d 70 38 be 60 3d 0d bc 9e a4 ed 3d 1a 92 19 3f
       -0.18011661 -0.00862059 0.11603664 0.5998856
000360 e6 84 b3 be 6d 40 ed 3d 34 a4 63 c0 99 84 f2 3e
       -0.3506233 0.11584554 -3.5568972 0.4736679
000370 30 33 4e 3d 6a e4 b1 3c cc 66 41 bd 3c 95 87 3d
       0.050341785 0.021715362 -0.047217175 0.06620261
000380 16 17 48 3d 84 10 95 bc 80 73 3f 3e b6 ac c1 3d
       0.04885014 -0.018196352 0.18696404 0.0945677
000390 bc 33 32 3e 98 6c 42 3c 85 5c f5 bf e8 b6 0a 3d
       0.17402548 0.011866711 -1.916886 0.03386584
0003a0 b7 df 23 c0 74 ac 6b 3e a8 6a eb bc 76 c3 3c c0
       -2.5605295 0.23015004 -0.028737381 -2.94943
0003b0 7f 49 c5 c0 03 08 53 3d 09 f7 08 3e 7c c0 98 be
       -6.1652217 0.051521312 0.13375486 -0.29834354
0003c0 51 a6 de be 7d f6 5f 3d b4 d0 f7 3d 53 4d 51 3f
       -0.43486264 0.05467843 0.12100354 0.8175861
0003d0 01 76 05 be 07 00 4f 3d 6d 32 d1 3d 8e 86 6c 3d
       -0.13033296 0.050537135 0.10214696 0.05774551
0003e0 e3 56 43 3e 5d 83 a2 3d 9e ef 0f bd dc 83 04 bd
       0.19076113 0.07935212 -0.035140626 -0.032352313
0003f0 07 1f 58 3f 91 38 c1 3d 67 97 34 3e 60 4f 8f 3b
       0.84422344 0.09434617 0.1763588 0.004373476

output_layer.2.bias f4 [256]
000000 4f e4 0e 3e 97 eb 10 3e c3 15 07 bd c0 23 a3 ba
       0.1395428 0.1415237 -0.032979738 -0.0012446567
000010 7a fd 87 3c 78 f5 f2 3c 08 02 f3 3c 4d 1a 49 bc
       0.01660036 0.029658064 0.029664055 -0.012274337
000020 e0 6d 39 3d c9 8c 9b bd f3 5e 91 3d e4 d1 e5 3d
       0.0452708 -0.07595212 0.07098188 0.11221674
000030 d5 fa 4c 3d b2 f5 72 3d 53 6a b6 bd 12 e9 03 3e
       0.0500439 0.059316345 -0.089069985 0.12881878
000040 a0 bc 11 3e c6 75 03 3e 88 ba a3 bc 20 d3 40 bd
       0.14232111 0.12837896 -0.019986406 -0.047076344
000050 28 82 2a 3e 90 d7 82 bd f4 20 a0 3b 57 d2 62 bd
       0.16651213 -0.063887715 0.004886741 -0.055376377
000060 5e 8e 29 bd 64 62 28 bd c4 f5 aa 3c cf 4d 23 bd
       -0.041395538 -0.041109458 0.020869143 -0.039869126
000070 ca d0 0a 3c be c0 68 bb 09 85 7a 3d 28 79 3b bc
       0.008472631 -0.0035515274 0.06116203 -0.01144246
000080 ee 3d c7 3e 38 94 ef bc 92 9a 4e 3d 30 f6 46 3d
       0.38914436 -0.02924548 0.05044038 0.048574626
000090 1e 7f be 3d 64 fb c8 bc 47 3b 24 3e 01 81 63 bb
       0.093015894 -0.024533935 0.16038238 -0.0034714343
0000a0 25 ee 0c 3d d6 a4 a5 3b 00 99 bc 3c 4c 0c 2f 3e
       0.0344068 0.0050550504 0.023022175 0.17094535
0000b0 ee 4b 0c 3e 63 fa 00 3e 2e 1e 23 3d f8 1d 36 bd
       0.1370084 0.12595515 0.039823703 -0.044462174
0000c0 98 46 bb 3c 8e 2d cd b9 2d f9 9a bd 6b ec 86 3c
       0.02286081 -0.00039134588 -0.07567058 0.016470155
0000d0 0e d0 82 3d d5 ec 11 3e 08 2b 3a 3c 74 be 47 bd
       0.063873395 0.142505 0.0113627985 -0.048765615
0000e0 7d df 1e 3d dd 4a 96 bd cc 32 88 bd ab 86 09 3e
       0.038787354 -0.07338498 -0.06650314 0.13430278
0000f0 b7 4c a0 3d ce eb ec 3d c3 ee 92 3d e4 cd 51 bd
       0.07827132 0.11568414 0.071744464 -0.051221743
000100 9b 75 0f 3d be 6e c0 3d e0 cb b3 bb 6c ae cc bc
       0.035024267 0.093961224 -0.0054869503 -0.024985515
000110 fd b9 41 bd 1b 37 0b 3e 10 ed 33 3d 3f fd 7f bd
       -0.047296513 0.1359524 0.043927252 -0.062497374
000120 3a 2d 4d 3d eb 8f 3a bd 59 56 77 3d 03 8a 96 3d
       0.05009196 -0.045547407 0.060385082 0.073505424
000130 00 de 6b 3d 95 06 aa 3d b9 2d b4 3c 08 d2 51 ba
       0.057584763 0.08302037 0.021994459 -0.00080040144
000140 50 ff 0a bd eb 6f 4a 3e 38 72 97 3c da c6 3c bd
       -0.03393489 0.19769256 0.018487081 -0.046088077
000150 c0 5f 5f bd 95 e8 45 bc 04 ef 10 3e ca 46 22 3e
       -0.054534674 -0.012079378 0.14153677 0.15847316
000160 04 2c 05 bd 8a d1 05 3e ab c9 df bc f6 ee 82 3d
       -0.03251268 0.13068214 -0.027317842 0.063932344
000170 ae 9a ef 3d d3 60 88 bd 68 9d 79 bd 55 12 48 bc
       0.11699425 -0.06659093 -0.06094113 -0.012211402
000180 61 ef cc 3b 2c 2e ca 3d a1 0d 8b bd a9 26 9a 3a
       0.006254122 0.09872088 -0.06789709 0.0011760789
000190 0a 33 1b bd 8d 15 19 3d c7 dd 01 bd 58 48 94 bd
       -0.03789047 0.037374068 -0.031705644 -0.07240361
0001a0 e0 bc 36 bb e0 a3 e1 bc 1e c2 0a 3e 8b b3 69 3d
       -0.0027883574 -0.027543962 0.13550612 0.05705599
0001b0 9b 59 8a bd 53 c7 01 bd 63 48 5b bd 23 c6 24 bd
       -0.06755372 -0.03168423 -0.05353583 -0.04022802
0001c0 12 af 52 bd b0 b3 af bb 1c 1f 32 bd a8 2e 18 3c
       -0.05143649 -0.0053619966 -0.0434867 0.0092884675
0001d0 4f 85 45 3d 9b 36 2a 3d 1a 41 e3 3d 9e b6 6f 3d
       0.048222836 0.041555982 0.110964015 0.058523767
0001e0 5e e4 8e bd bb bb 8d 3c 0f 0e e2 3d 4b 39 2b bd
       -0.06977151 0.01730143 0.11037838 -0.041802686
0001f0 44 8b 8d 3c bc 2c 6c bd d8 d1 5c bc 68 21 18 3d
       0.017278321 -0.05765985 -0.013477765 0.037141234
000200 36 cf 52 bd 63 01 c7 bc 33 64 e2 3d 0e 6d 09 3e
       -0.051467143 -0.024292653 0.11054268 0.13420507
000210 f4 26 85 bd c0 e6 8a bc 20 5a 3f bd 68 c7 eb bc
       -0.0650157 -0.016955733 -0.04671681 -0.028781608
000220 8c 82 e1 3c b8 1e ba 3c 95 37 9b bb 10 66 12 3d
       0.02752807 0.022719726 -0.0047368505 0.035741866
000230 0c fb f1 bc 00 78 43 b8 89 ea 77 bd a9 48 59 bd
       -0.029538654 -4.660338e-05 -0.060526405 -0.05304781
000240 f2 92 26 3e 8c a8 ce 3d 24 a3 bc bc 04 76 69 bd
       0.16266993 0.100907415 -0.02302701 -0.056997314
000250 32 1d 87 bd b5 65 04 3e 07 f3 05 3d 21 2e fe 3b
       -0.065973654 0.12929423 0.032702472 0.007756964
000260 d2 46 8d 3c bd 89 d7 3d 92 46 1a 3c b3 28 05 3e
       0.017245684 0.10524318 0.009416239 0.13003807
000270 db 2e 83 3c cc a1 14 3d 50 57 96 3d a0 05 02 bd
       0.016013553 0.036287114 0.07340872 -0.031743646
000280 7c e7 ce 3c 45 3f 99 bc 70 9a 7e bd 0a 6c cc 3d
       0.025256865 -0.018706927 -0.062159 0.09981544
000290 e4 3c 60 bd 66 78 e7 3d 23 f2 18 bd 3f 1d 67 3d
       -0.05474557 0.11302261 -0.037340295 0.056424376
0002a0 78 3c 97 bc 0a b3 bb 3b 85 f1 bb 3d 78 ca 31 3d
       -0.018461451 0.00572813 0.091769256 0.04340598
0002b0 2a 68 80 3c e4 66 40 3d 3b b3 2c 3b f2 41 65 bd
       0.01567467 0.046973124 0.0026351947 -0.055971093
0002c0 55 ea b0 3d 83 14 c7 3e 99 e9 0e 3e 5e 80 00 bd
       0.08638445 0.38882837 0.13956298 -0.03137242
0002d0 b6 16 26 3d 37 bb 71 3b 84 71 17 bd 66 20 61 bc
       0.040549003 0.003688527 -0.03697349 -0.013740635
0002e0 ce 7f ef bc 3f fe 62 3c bc 7b 3d 3d 49 48 2b 3e
       -0.029235747 0.013854562 0.04626058 0.16726793
0002f0 5f e4 05 bc c3 33 62 bc 88 35 21 bd 23 54 a1 3c
       -0.008172124 -0.013806286 -0.039357692 0.01969344
000300 c0 70 1f 3c 0e 31 65 bd 23 12 96 bb 46 3a e5 bc
       0.009731472 -0.055954985 -0.004579799 -0.027981889
000310 55 93 fb 3d d0 6e f9 3b 5e 52 48 bd 35 39 a5 3c
       0.12283961 0.007612087 -0.048906676 0.02016888
000320 9e a3 94 3d 1b 72 fb 3d 46 53 02 bd ff 55 df bb
       0.0725777 0.12277623 -0.031817697 -0.0068156715
000330 82 f6 08 3e d0 d0 18 3c 5c 8f 62 3d 8f 66 97 bd
       0.13375285 0.0093271285 0.0553125 -0.073926084
000340 9e 9f 19 3d 77 75 1a 3d 73 a7 58 3d a6 f7 fc 3d
       0.03750574 0.03770968 0.052894067 0.12351923
000350 f0 fd 05 bc f7 5a cf 3c 36 2b 7a 3d f9 da 70 bd
       -0.008178219 0.02531193 0.061076365 -0.05880258
000360 f9 e0 2b bd 0c f8 e7 3c 6f 8e a2 bd ae 93 52 3d
       -0.041962598 0.02831652 -0.07937323 0.05141037
000370 7b 14 91 3f f1 3b b4 3c c8 c2 33 3d 32 c0 0f 3d
       1.1334375 0.022001239 0.04388693 0.0350954
000380 54 20 d3 bc 7d 00 57 bd e6 13 2f bd 34 6e 90 3f
       -0.025772251 -0.0524907 -0.042743586 1.1283631
000390 8f e7 0a 3e 51 cf 9d bc 2e 92 01 bd 40 77 73 3b
       0.13564895 -0.019263895 -0.03163355 0.0037149936
0003a0 bc 81 ef bc 3b ea 21 3e 92 31 4b 3d f7 40 b2 3d
       -0.029236667 0.15812008 0.04960782 0.08703797
0003b0 d1 81 01 3d 3e 3d b9 3c 74 1d 59 bc e8 77 14 bd
       0.031617943 0.02261221 -0.013251651 -0.036247164
0003c0 9b 25 03 3c 85 aa c0 3b b4 5f da bc ad ff 90 3f
       0.008004571 0.0058797025 -0.026656963 1.1328026
0003d0 74 e7 fd 3c 96 f1 ef 3d b8 64 21 3e 8c a8 f7 3a
       0.030994155 0.11716001 0.15761077 0.0018894835
0003e0 d5 25 d0 3b 9c b1 1d 3e 9f 23 0e 3e 36 ef 24 bc
       0.006352166 0.15399784 0.13880776 -0.010066798
0003f0 0d 35 b4 3c 51 74 da 3c c5 b6 ae 3c 40 8e da 3b
       0.021997953 0.026666792 0.021327386 0.0066697896

output_layer.4.weight f4 [3, 256]
000000 86 79 eb bf 24 bc 25 c0 91 47 cf bc 8c e9 b9 bc
       -1.8396461 -2.5896082 -0.02530268 -0.022694372
000010 80 fc fa 3c 40 46 92 bb 9e 80 04 3d 0a 4d 0e 3d
       0.03063798 -0.004463941 0.03234922 0.03474144
000020 f8 f9 54 bd 5c 11 d1 3c b5 25 d5 bf 2e a4 37 c0
       -0.0519962 0.025520973 -1.6652132 -2.8693957
000030 cd 8c 93 bf b0 03 a4 bb aa 34 c3 bc 2f 32 09 c0
       -1.1527344 -0.0050053224 -0.023828823 -2.143688
000040 2f aa ee bf 80 07 c9 bf e8 54 ed 3c 70 86 5a 3c
       -1.8645686 -1.5705414 0.02897115 0.013337716
000050 61 39 bb bf ad f1 10 3c 19 0a 6f bc 10 54 fe bc
       -1.4626886 0.0088466825 -0.01458981 -0.031045943
000060 e6 c8 4b 3c df cd 1d bd 40 c4 27 bc da 79 11 3d
       0.012438035 -0.038526412 -0.010239661 0.035516597
000070 1e d4 0e 3d 6d cb bd 3b dd d1 0d c0 c0 9e 39 bb
       0.03487026 0.0057920725 -2.215934 -0.0028323382
000080 dc 8f fc 3e 00 39 c9 b9 b1 71 e2 bf 05 90 2b c0
       0.49328506 -0.00038380176 -1.7690946 -2.6806653
000090 bd d0 f7 bf 10 e1 9e bc ce de a5 3f 37 cf 33 3d
       -1.9360577 -0.019394428 1.295862 0.043898787
0000a0 82 39 86 bc ec b3 e1 bc 58 a6 7d bc 18 ec a5 bf
       -0.016384844 -0.027551614 -0.015481554 -1.2962675
0000b0 fd 55 a8 bf 96 36 d9 bf ca c5 e6 bf 42 05 1a 3d
       -1.3151242 -1.6969783 -1.802911 0.03760267
0000c0 40 5c 24 3a 40 39 19 3c 88 b8 ca bc 43 b1 dd bc
       0.000626985 0.009352028 -0.024746194 -0.027062064
0000d0 9e 60 e6 bf 1b d4 a8 bf 74 35 ac 3c 9c d2 b6 bc
       -1.7998235 -1.318973 0.021021582 -0.022317223
0000e0 b6 88 6c bc b0 f7 dc bb 04 71 26 bd 71 06 c1 bf
       -0.014436891 -0.006743394 -0.040635124 -1.5080091
0000f0 ae ae 04 c0 bf f1 dd bf bf dd aa bf 7c 61 0a 3d
       -2.0731616 -1.73394 -1.3348922 0.033784375
000100 dd 62 9e bd 82 45 89 c0 6c 14 00 bd 2b a5 9e bd
       -0.077337004 -4.289735 -0.031269476 -0.07746347
000110 33 50 a6 bc e0 0b 1a c0 f8 26 0c 3d 79 15 eb 3c
       -0.020301914 -2.4069748 0.03421685 0.028696762
000120 6d 67 3f bd 1e 6d fc bc 68 55 09 c0 f5 d0 cd bf
       -0.046729494 -0.03081375 -2.1458378 -1.6079394
000130 d7 29 1a bd 39 4b 0f c0 db 04 8d 3c 1f a4 f9 3c
       -0.037637558 -2.2389662 0.01721423 0.030473767
000140 84 33 dd bc 24 e2 da bf 88 12 4c 3c 6f 33 6d ba
       -0.027002104 -1.7100263 0.01245559 -0.0009048497
000150 a8 52 08 3c 1d 62 05 3d 66 ea 94 bf 09 09 26 c0
       0.008320488 0.03256427 -1.1634033 -2.5943015
000160 60 d7 96 bb 4c d1 1e c0 6d 49 7e 3c eb 4c e7 bf
       -0.0046033114 -2.4815245 0.015520436 -1.8070349
000170 17 63 d2 bf 46 02 35 bd c0 77 35 bd 0a 9a 07 bd
       -1.643649 -0.04419162 -0.044303656 -0.033105887
000180 1e 37 41 3c bd fe 97 bf 56 04 26 bd 87 6f b5 bc
       0.011792926 -1.1874615 -0.04053148 -0.022147907
000190 4c 25 06 bd 17 60 00 3d e0 78 57 bc dc 6e cd 3c
       -0.032750413 0.03134164 -0.013151377 0.025077276
0001a0 9a ea 3c bd dc b1 f6 bc 66 9b 30 c0 d2 54 2f c0
       -0.04612217 -0.030114107 -2.7594848 -2.739552
0001b0 a1 99 89 3d e8 01 11 3d f4 70 fc 3c 72 8d ff bc
       0.067187555 0.03540221 0.030815579 -0.031195376
0001c0 bb c3 f0 3d a4 57 03 3d 8a 1f 04 bd c2 4c 0c bd
       0.117560826 0.032066002 -0.03225664 -0.03425289
0001d0 97 bf f0 bf 25 40 a8 3c f6 35 18 c0 2e 74 47 3d
       -1.8808469 0.020538399 -2.3782935 0.048694782
0001e0 f0 0d 42 3d df 70 44 3d 7c 80 f2 bf fe 74 96 3b
       0.047376573 0.047959205 -1.894546 0.0045915833
0001f0 e0 8f 1a 3d 64 11 46 bd be b1 62 bd 60 fa a5 3c
       0.037734866 -0.04835643 -0.05534529 0.02026099
000200 00 4c 5b 39 43 8c 5d 3d 1b 8a b3 bf fc f2 41 c0
       0.0002091378 0.054088842 -1.4026521 -3.0304556
000210 38 25 03 ba ec dd a5 3a c6 66 2c bd 08 80 50 bc
       -0.00050027994 0.0012654639 -0.0420902 -0.0127258375
000220 4e 77 ba bf 6e c9 7e bd 4f 4f d1 bf 41 8d 22 bd
       -1.4567659 -0.062203817 -1.6352328 -0.03968549
000230 9d b4 91 3c 20 f1 c9 bb 10 b8 a3 3c eb 48 ec 3c
       0.017786318 -0.0061627775 0.019985229 0.028843364
000240 9e 84 d5 bf a2 81 c3 bf 80 a1 e6 bb b8 88 5b 3d
       -1.6681097 -1.5273936 -0.0070382953 0.053597182
000250 f8 75 b1 bc bf 55 fa bf 26 ff 25 3d d4 ac e8 3c
       -0.021662697 -1.9557418 0.04052653 0.028402723
000260 28 da 5e bd 2f 71 b8 bf a4 0c b0 bf ac 03 0e c0
       -0.05440727 -1.4409541 -1.3753858 -2.218974
000270 03 66 f2 3c d1 fa 1c bd c6 59 f7 bf a6 63 4f bc
       0.029589659 -0.038325135 -1.9324272 -0.012658035
000280 c8 f5 30 3d a3 a4 49 bc fb 16 b1 bc 45 d6 9a bf
       0.043203145 -0.012307319 -0.021617403 -1.209664
000290 d0 2a 5d bc 40 b5 d6 bf 40 a0 2c bd aa 06 9c bf
       -0.013498977 -1.6774063 -0.042145014 -1.2189534
0002a0 e0 eb 6b 3c e6 ee a4 bc 61 ca 9c bf b0 d2 58 bd
       0.014399499 -0.020133447 -1.2249261 -0.052935302
0002b0 2e 3c 60 3d 38 fa 01 3c 3c c5 d5 bc 22 a1 02 bc
       0.05474489 0.007933192 -0.026095025 -0.007972987
0002c0 18 37 d5 bf 27 d6 8d 3f 01 b2 04 c0 8e 1e a5 3b
       -1.6657438 1.1080979 -2.0733645 0.005039043
0002d0 af a5 0d 3d a8 3e 5b 3d 30 bc 90 3c e3 e2 92 3c
       0.034581836 0.05352655 0.01766786 0.017930454
0002e0 c8 2c d8 bc 99 54 71 3c 0f d3 94 bc d2 84 ba bf
       -0.02638854 0.014729642 -0.018167047 -1.4571784
0002f0 41 36 5d 3d 31 a9 9d bc 28 e5 47 3d b9 44 18 3d
       0.05400682 -0.019245716 0.048802525 0.037174914
000300 e9 07 84 bd a6 e7 5e 3e 8a 42 55 bd d4 2a ee 3c
       -0.06446821 0.21768054 -0.05206541 0.029073156
000310 e0 93 18 c0 9a 92 75 3d 00 f3 05 bc 64 4d 20 bc
       -2.3840256 0.059954263 -0.0081756115 -0.009784076
000320 90 ad d0 bf 28 44 59 c0 d8 25 5c bc 05 cb 2d bd
       -1.6302967 -3.394785 -0.013436757 -0.042429943
000330 46 d4 67 c0 00 4a c2 bc 23 47 ed bf 57 a7 e0 bc
       -3.6223311 -0.023716927 -1.8537334 -0.027423544
000340 61 8b 9f bc f6 bd 39 3c b2 48 6e bc 73 64 1d c0
       -0.01947564 0.011336794 -0.014543699 -2.459256
000350 82 39 4f 3d 37 38 f7 bc e0 3d 28 bb 0b e1 bb 3c
       0.050591953 -0.030178173 -0.0025671646 0.022934457
000360 40 f4 8b bc 26 94 79 3d 44 99 2f bd 5e 6c 66 3d
       -0.01708424 0.0609323 -0.042870775 0.05625569
000370 95 23 97 3f 43 17 f1 bf 5a b0 ed bf 60 6a cd bc
       1.1807734 -1.8835224 -1.8569443 -0.025075138
000380 bf 6f 22 3d f7 f1 fb 3c d0 84 57 3d 18 6d 84 3f
       0.03965735 0.030755026 0.052616894 1.0345793
000390 ff c4 85 c0 70 8e 86 ba f2 3c 7e 3d e4 de 92 3c
       -4.1802974 -0.0010265838 0.06206984 0.017928548
0003a0 ac b2 86 3c f3 6c 9f bf 77 e6 31 bd d9 43 e8 bf
       0.01644262 -1.2455124 -0.04343268 -1.8145705
0003b0 17 33 1a bb d0 81 17 3d b1 f3 cf bc d8 c8 fd bc
       -0.0023528987 0.036989033 -0.025384756 -0.030979559
0003c0 1c 85 06 bd f9 9e 2b 3d 4f d4 a3 3c 26 b8 00 40
       -0.032841787 0.041899655 0.019998698 2.0112395
0003d0 03 f7 d7 3b b3 36 9b bf b7 94 97 bf 56 2b 62 3c
       0.0065907254 -1.2126068 -1.1842259 0.013804277
0003e0 f7 43 4b 3d de d5 a5 bf b6 49 b9 bf 38 bb a1 bd
       0.049625363 -1.2955892 -1.447562 -0.07897037
0003f0 d2 27 01 3d 24 81 a1 3c 56 48 2d 3c c8 81 84 bc
       0.031532116 0.0197149 0.010576328 -0.016175166

output_layer.4.bias f4 [3]
000000 7a ef 10 3f af 77 00 3f be c2 41 3f
       0.5661541 0.5018262 0.7568778
